best_model_weights_diesel.npz (npz, 7063 bytes, 8 tensors)

W0 f8 [8, 16]
000000 15 79 9e 2b f6 9b 57 3f 34 4b 48 f0 fd c2 62 3f
       0.0014409927375492227 0.0022902450311987014
000010 fc 72 19 b6 cb 5b 55 bf 03 e3 1a 66 44 12 41 3f
       -0.0013036240929046863 0.0005209764460324121
000020 fe 8d 38 f8 47 2e 86 3f 1e 44 50 76 7f af 30 bf
       0.01083046175251123 -0.0002546011149329746
000030 5a c3 8c 44 92 cb 5c 3f 15 e2 f1 7a bd 94 4b 3f
       0.0017575195690364338 0.000841705817847207
000040 17 98 26 fe 46 29 55 bf 87 a0 ef 04 3b 04 69 3f
       -0.0012915795601684593 0.0030537750931110583
000050 98 1b 87 e0 ca 3e 71 bf e8 5c 67 77 2e 66 5a 3f
       -0.0042102742085664766 0.001611276032795145
000060 99 17 6c 0c 3d c9 6b bf 69 72 bd 2c e6 83 5e 3f
       -0.003391856418036587 0.0018625018883177363
000070 99 5b 52 99 f4 64 58 3f c2 b5 9d 8d 09 a2 44 3f
       0.0014889134083994947 0.0006296679159569151
000080 56 10 66 02 61 6c 37 bf 7c 06 d1 87 17 f1 59 3f
       -0.0003574120368272695 0.0015833596983302603
000090 26 df 44 71 6c c4 47 bf 87 2d 2f b7 70 44 1a bf
       -0.0007253198150811476 -0.0001002019687767389
0000a0 a6 19 68 3d 79 02 70 3f 6d 52 e0 1d ca 4b 66 3f
       0.003908609002343166 0.002721686133563764
0000b0 1f c3 df 34 ef 6a 73 3f 48 f0 05 02 1f d1 33 3f
       0.004740652466339395 0.00030238158253559745
0000c0 d9 65 76 5c 42 12 74 bf ae c8 6a db 56 cb 58 3f
       -0.00490022585236135 0.0015133236135338834
0000d0 c6 d1 d5 13 1a cc 61 bf 5d be d0 51 9b 51 50 3f
       -0.002172518665867626 0.0009960190575490004
0000e0 23 60 4f 1f ed 4c 45 bf d9 2d 12 11 7a a8 75 3f
       -0.0006500394653086199 0.005287625143988583
0000f0 4a c9 64 4a 08 67 3c bf 1b 64 0b 06 df bf 62 3f
       -0.0004333873024676872 0.002288756936064574
000100 c7 15 0d da 12 85 5f 3f a5 b6 f4 bb f4 32 51 bf
       0.0019238170718421808 -0.0010497465116929086
000110 41 9c cf c5 02 59 5e 3f 87 bb da 32 58 a3 69 bf
       0.001852276523317334 -0.0031296465520748748
000120 7c da 42 66 a9 7d 4c bf 71 72 12 8b f1 b0 46 bf
       -0.0008694722314633442 -0.0006924800310517798
000130 f6 68 d5 75 a9 fc 60 3f 18 be 6d 39 95 f2 29 3f
       0.0020736036082499255 0.00019796439729756542
000140 0b 7a 78 7e 09 80 44 bf ac 03 5a a4 ff 78 49 bf
       -0.0006256147725627893 -0.0007773636104532098
000150 1e 1a 30 f7 0f 5f 5b bf 9d b9 8a e0 10 c2 6f 3f
       -0.0016706138528676038 0.0038767175322711026
000160 4a d4 79 49 ad 3f 34 3f b7 45 56 bc ea a2 5a bf
       0.0003089712203981394 -0.0016257564869629323
000170 18 6c 80 3b c0 f4 69 3f ee da 14 00 4e e3 68 bf
       0.0031684641399016937 -0.0030380748218264897
000180 72 4b 57 ac 00 ca 6b 3f 28 b0 e4 fe 79 4d 52 bf
       0.0033922207974028057 -0.0011171046604188193
000190 c0 3c cb 60 ef d1 6f bf 9d d4 8e 4c 77 61 40 bf
       -0.003884284530023402 -0.000499900104037682
0001a0 9d 38 a7 55 36 89 42 bf aa c1 d7 54 63 7e 6d 3f
       -0.0005656733804302487 0.0036003055636159758
0001b0 77 93 f9 bf 30 29 31 3f 77 3b ce 45 f0 2b 5e 3f
       0.00026185455496934663 0.0018415304577705496
0001c0 f3 b1 42 8e 53 68 65 bf 9c 11 f0 eb e7 13 71 bf
       -0.0026132232615820815 -0.004169374412417073
0001d0 97 ca 66 8f 78 b2 58 3f 84 a6 e1 5d 6a 27 15 bf
       0.0015073945374807546 -8.069597922291156e-05
0001e0 b5 80 a3 c0 79 9b 4c 3f 17 65 bb 41 8e b0 39 bf
       0.0008730263228038578 -0.0003919932657772836
0001f0 87 c4 3e f1 4c 9f 42 3f 02 f5 92 08 11 1d 57 3f
       0.0005683065123688471 0.0014107385962199297
000200 d7 ba 0e 06 01 31 62 3f 68 44 46 78 01 02 6e bf
       0.0022206325524714954 -0.0036630657870735835
000210 11 d4 e3 1a e2 f8 67 3f 5d f9 b4 3f 31 21 40 3f
       0.0029262939561882713 0.0004922380898404844
000220 60 fa c0 48 5d 36 72 3f a3 61 fb 8f 1d ee 0c 3f
       0.004446377173791122 5.5179860280754675e-05
000230 a3 82 6d 54 80 b5 70 bf 44 a7 0e fe c7 25 35 bf
       -0.004079343117013553 -0.0003226865065309901
000240 0a 91 3a c4 a6 4a 36 bf 56 2b 21 2b c8 16 22 3f
       -0.0003401429314442572 0.00013800805533245125
000250 dd 7b d5 49 10 ac 40 bf d9 38 8a ae 91 f2 45 bf
       -0.0005087928326864517 -0.0006697856270692317
000260 5a 4f 37 0d 0a ce 63 bf 4c 02 0b 89 ff c2 70 bf
       -0.002417583114700789 -0.004092214760647094
000270 8f 4c b9 90 c8 9d 6f 3f 4d 93 71 72 c4 9c 61 3f
       0.003859416703372149 0.0021499478203161116
000280 d4 94 48 47 9b cb 68 bf df b8 96 ba e2 dc 50 3f
       -0.003026774671769242 0.0010292257451101556
000290 c9 02 59 a9 fc 1b 43 3f 22 fc 40 d1 7a ef 59 bf
       0.0005831702898789422 -0.001582975329270438
0002a0 7e 3c db a2 31 5d 75 3f 42 bb a4 2d 5b 72 20 3f
       0.005215829745522814 0.0001254783918027362
0002b0 6a 44 de f7 a5 43 57 3f 1a 60 96 38 00 f2 70 3f
       0.001419937208513989 0.004137040008025417
0002c0 b0 89 ca a1 9f ac 56 bf be 89 20 bc 01 c5 64 bf
       -0.0013839301019876564 -0.0025353464016159835
0002d0 40 07 1e c0 57 27 40 bf e5 77 0b 94 a8 2d 53 bf
       -0.0004929712742838058 -0.001170553805585944
0002e0 38 41 95 e1 73 01 5a 3f b9 f6 35 c0 9b 92 23 bf
       0.0015872604038414517 -0.00014932776694458696
0002f0 5e e1 43 68 08 39 52 bf e6 0c 3c b0 07 9d 59 bf
       -0.0011122305014038196 -0.001563317783564605
000300 49 a9 d2 c7 1c ed 54 3f b6 62 02 ae 51 38 48 3f
       0.0012772351322306189 0.0007391356303002225
000310 fc 61 ae c1 8d fe 5f 3f 2c e8 47 90 3d f7 5d 3f
       0.0019527801839328554 0.0018289662558559445
000320 8c f9 90 98 fa b0 63 3f 16 14 f5 d9 a0 ca 54 3f
       0.0024037260486970465 0.0012690134825146296
000330 f1 5c 59 48 41 f7 5a 3f 15 c9 6a 75 8e f9 4b 3f
       0.0016458642507098354 0.0008537240599564589
000340 19 de 68 a3 dc aa 62 3f ca 92 fe 0c 85 5d 69 3f
       0.0022787389127889687 0.0030963514945646408
000350 17 1b 4e 0d 25 00 54 3f c4 d1 ba d1 8d 95 30 bf
       0.0012207376323389357 -0.0002530547369403969
000360 c9 79 6f fd 64 65 44 3f 8d f6 8f 20 9c e2 46 3f
       0.0006224387278697614 0.0006984007205798768
000370 82 49 00 87 1f df 5c 3f 57 ab 2e e6 47 30 54 bf
       0.001762181080270681 -0.001232214178098009
000380 6d be a7 38 6e d9 32 3f 9e ca c0 31 9f 6a 60 3f
       0.00028761807393971086 0.0020039662613496453
000390 43 0d 1f af 09 74 61 3f 61 e3 30 74 fb 90 6e 3f
       0.0021305264608330334 0.0037312422951142764
0003a0 a8 09 cb 1e 08 98 59 bf b8 17 5e 2e ea ba 37 bf
       -0.0015621260928787382 -0.0003620931369073782
0003b0 19 24 57 1f 76 2b 77 bf 68 00 98 ad 5e 53 63 bf
       -0.005656682410923452 -0.0023590897733356993
0003c0 c0 4f 41 4c 54 d7 40 bf 2f cd 36 fe 7c 44 67 3f
       -0.0005139505015088128 0.0028402749319071034
0003d0 ab 01 e7 cd 71 2e 61 bf d8 5e 59 22 86 97 6b bf
       -0.002097341798816118 -0.0033681506927612896
0003e0 25 48 ab 0c a0 84 49 bf 6e e7 1b f8 72 86 48 3f
       -0.0007787496081965757 0.0007484494564941999
0003f0 94 6e 60 fc 17 9f 52 3f 2f 73 61 c2 04 4a 64 3f
       0.0011365637051374044 0.002476701064593099

b0 f8 [1, 16]
000000 50 2c 9f 29 73 07 a2 bf e0 16 09 83 85 b2 93 3f
       -0.03521308787420507 0.01923569309499029
000010 7e 81 40 30 ee 8a 9a bf 06 b7 6b 0d 52 17 a7 3f
       -0.025920602507655037 0.045099796427036806
000020 5d 03 b8 3c 26 0e d7 3f 2c 45 a9 a9 80 5d 92 3f
       0.36023860864229623 0.01793480906991822
000030 ed 81 3c 47 ea 55 aa 3f 9d 2d ef b2 3c 23 bd 3f
       0.051436730571598456 0.11381892555725988
000040 41 8b 27 2a 37 a9 8b 3f 46 41 85 fc 1c 9c a3 3f
       0.01350634667773465 0.0383004244091603
000050 95 ac dc 92 4e b5 a4 3f 02 af 11 6a d9 bb a7 3f
       0.04044576208829046 0.046355051229367575
000060 01 4b 7b 2f 19 13 bc 3f 75 0b a9 7a dc 08 a5 3f
       0.10966641816348145 0.04108323094671721
000070 c1 fe 67 98 25 30 b6 3f 7a 48 23 77 f0 9f 8f 3f
       0.08667216273169755 0.015441778789327499

W1 f8 [16, 16]
000000 8f c6 82 78 e3 cd 50 bf 8d 09 20 ff 1b 5b 44 3f
       -0.0010256501573561482 0.0006212126447738151
000010 14 44 66 16 64 99 24 3f 93 69 3b 4f 90 a8 66 3f
       0.00015715929766860258 0.0027659243149688677
000020 ff 89 61 f3 cd eb 4a 3f 6d 6d 3d bb 06 87 60 3f
       0.0008215671175658134 0.002017510554578264
000030 b9 4c 1f 7e 68 a5 61 bf a6 b6 1a 42 1f e2 5b bf
       -0.002154068076359286 -0.0017018609291129887
000040 4f d9 2b 9a 30 cd 5b bf 23 5d 16 6a 25 8f 51 3f
       -0.001696870291821268 0.0010717263579403467
000050 c0 b6 9c fa 10 58 56 bf 14 8d 8b c7 f6 ca d8 3e
       -0.0013637700853438711 5.911070837003101e-06
000060 ac 5e 4a 63 c2 60 41 3f 21 f9 de 6a 93 52 1e 3f
       0.000530333438819993 0.00011567139401244933
000070 a7 57 dc 7f 1c 30 51 3f e0 22 d3 9d 93 42 39 3f
       0.0010490682902335265 0.00038543800276306765
000080 99 bc ba 15 d6 04 66 bf 7b 39 3e 9d f5 55 37 3f
       -0.0026878529877972343 0.00035607572976283753
000090 a3 24 e5 bf c0 80 16 bf eb cc f7 e9 4c 82 41 bf
       -8.584190797934986e-05 -0.0005343318516096962
0000a0 21 0e 19 36 c3 38 0c 3f 1d 9a ce 2e 69 17 3f bf
       5.3828675629332774e-05 -0.0004744178575556717
0000b0 98 1a b9 0f f0 cb 52 bf 68 7d 22 0e 9a b6 23 3f
       -0.0011472553586756914 0.00015040045315560112
0000c0 0e c3 18 ae 07 ce 58 bf e9 45 d1 c7 01 62 38 3f
       -0.0015139651299131448 0.00037205260725156495
0000d0 27 19 af 7f 00 27 4e bf de ba d9 c5 71 b3 5e bf
       -0.0009201767382982826 -0.001873837572386065
0000e0 4a 72 f4 ff 83 8a 6b bf 60 58 b8 fe 12 52 58 3f
       -0.003361947834163358 0.0014844117639589913
0000f0 b3 eb 7e 1c 5f 36 50 bf b1 ed 9a f2 b9 e8 5c 3f
       -0.000989525682583131 0.0017644706626204038
000100 27 65 b3 64 96 88 32 bf 72 6f 78 57 c1 f1 58 3f
       -0.0002827994509978109 0.0015224826910360226
000110 d5 77 6b 24 38 fc 65 bf 2d eb 22 ff 77 6c 12 bf
       -0.0026837440994844455 -7.028086091313548e-05
000120 8f 4e 23 51 27 73 62 bf de 28 4e f2 e8 34 52 3f
       -0.0022521751317102277 0.0011112475269521786
000130 94 89 6e 99 56 10 36 bf 53 98 19 15 e9 e4 53 3f
       -0.00033666719667215764 0.0012142444797063237
000140 97 15 5a a9 31 99 2a 3f 9a e3 30 fa c9 f3 69 3f
       0.00020292979450091113 0.0031680054539972692
000150 61 65 12 72 b6 31 4f 3f d2 7c e6 61 38 ab 5d bf
       0.0009519711349127818 -0.0018108416184999154
000160 49 07 3d 42 37 4e 56 bf 3c 88 b8 ef f3 da 68 3f
       -0.0013614215503853935 0.0030340923674581338
000170 ea 5a 12 7d 10 b9 65 bf 99 2a a5 7c 48 7f 50 bf
       -0.002651722149106352 -0.0010069091682277985
000180 c0 d2 ac a5 19 38 58 3f bb e3 17 ec 2b 16 41 3f
       0.001478219076216522 0.0005214418853817163
000190 67 a0 40 a9 24 a0 53 bf 1a e8 c4 de 31 58 5f 3f
       -0.0011978490847557534 0.0019131171239466006
0001a0 48 3c 7a f4 99 8d 54 3f aa e6 e1 26 6b 96 40 3f
       0.001254463526411136 0.0005062125399170798
0001b0 d7 e4 e2 37 86 e3 52 3f 81 b0 83 f5 39 ce 44 3f
       0.0011528788304942439 0.0006349356654289513
0001c0 38 b8 5e 3c 6b f5 46 bf cd 36 4d 4c c4 21 5a 3f
       -0.0007006429302600708 0.0015949646924186434
0001d0 6d 44 63 0e ee 78 46 bf cd 92 a4 db 2c 04 4a 3f
       -0.0006858026870536611 0.0007939547570328887
0001e0 19 1c d1 f9 3c 2a 51 3f 54 b9 a4 33 a7 af 42 bf
       0.0010476680247550939 -0.0005702558912952607
0001f0 e1 b7 f3 af 9d a6 32 3f f7 20 8d 88 73 c6 54 3f
       0.00028458928859620257 0.0012680176025288684
000200 b1 15 ec b6 5e 98 5f bf 02 5b 32 57 28 d5 4b 3f
       -0.00192841767756256 0.0008493849731106842
000210 27 12 fd 24 95 5b 25 bf 23 ec 39 7d 30 a1 4a bf
       -0.00016294665919693136 -0.0008126723063947055
000220 0b 09 dd ff cd e4 06 3f da b3 e0 b5 61 d2 6f 3f
       4.3666397671520285e-05 0.0038844974906368903
000230 d4 67 68 9e da 33 64 bf c6 91 87 49 e2 ed 5e bf
       -0.0024661321542795798 -0.0018877706371479438
000240 ca eb a7 35 c6 51 58 bf bf b8 25 ca 06 65 44 bf
       -0.0014843402519761789 -0.0006223948624162408
000250 ee 23 c8 4a 6d 3a 65 bf c9 42 89 25 64 36 3a bf
       -0.0025913366901062418 -0.00039997048364618905
000260 6f e7 d4 bc 53 22 58 bf 1b eb 93 57 e2 13 8a 3f
       -0.0014730279684287103 0.012733238504087965
000270 91 7c ad 6f 46 ae 4e bf 37 2b 6f 65 2f f4 63 3f
       -0.0009363025595624676 0.002435772486454903
000280 c3 8b f4 36 86 1d 62 3f 67 9e 88 69 10 6e 52 3f
       0.0022113438968900125 0.0011248741412916098
000290 01 4b 17 30 39 ca 55 bf 2e 00 c3 e7 12 29 49 3f
       -0.0013299520945692647 0.0007678358374718691
0002a0 44 da 26 bd ca f5 2c 3f e3 7a 02 b0 fc df fd be
       0.0002209482177712598 -2.84909719999682e-05
0002b0 a9 62 a3 8f bd 8b 5a 3f 92 30 9b 05 a4 c6 45 bf
       0.001620230787514535 -0.0006645489586048095
0002c0 de 59 1e 97 81 de 40 3f 37 5f de 3d 5c a7 00 3f
       0.0005148060574693932 3.1764509670738376e-05
0002d0 21 ca cc 60 4d f4 56 bf b5 f3 75 2c c8 58 64 bf
       -0.001401019634795227 -0.002483740772446253
0002e0 b2 96 39 83 f7 29 63 bf d7 c7 5b 70 e3 56 58 3f
       -0.0023393472891254036 0.0014855595667850796
0002f0 ab 4b 08 9c d4 7f 52 3f 30 38 36 63 17 b5 5e bf
       0.001129109980074298 -0.001874230231667006
000300 2a 19 ed fb e1 cc 37 3f 00 93 ee 22 da 29 5e 3f
       0.0003631641119920143 0.0018410330046460532
000310 dd 30 dd 5d 20 4d 40 3f a4 74 d9 63 32 d4 59 3f
       0.0004974754371942742 0.0015764705743983943
000320 79 cc c7 7a 3f 76 39 bf 5f ea 8b 8c c1 89 54 3f
       -0.00038851785464472755 0.0012535467268991669
000330 dc ef ed d3 ca 57 70 3f 76 5c 22 7c c7 45 52 bf
       0.003989975258146896 -0.00111526947924803
000340 7d e3 40 ef 47 24 38 3f 93 65 8c 66 f1 59 4e 3f
       0.0003683734532873779 0.0009262493814247589
000350 32 71 69 74 e1 92 65 3f 2d 3f d8 3f 71 67 48 3f
       0.002633514729764163 0.0007447531676820545
000360 d7 ed 48 a9 de 55 37 bf 35 c9 88 7d 5b ef 6d 3f
       -0.00035607038561000004 0.0036541735574015196
000370 6e 06 de ef 25 85 3e 3f 36 7e e1 06 ff fd 56 bf
       0.00046569992252196754 -0.0014033308503015435
000380 7a c7 5b 32 11 bd 54 bf 3f 95 08 0d 8b 80 3e bf
       -0.001265780252137165 -0.0004654254417196419
000390 1c 39 a6 e7 f7 22 cb 3e 16 ad c0 4d f9 b9 50 3f
       3.2349342379895697e-06 0.0010209021193173288
0003a0 1f 02 bc 41 63 65 3a 3f b5 e8 9c d4 eb 06 50 bf
       0.0004027716947661314 -0.0009782126457609623
0003b0 81 52 9b 1f 8b 40 25 bf 11 c6 61 50 f3 c2 40 bf
       -0.00016214082989187212 -0.0005115211540795435
0003c0 a6 5e 0f cb 21 25 69 bf bb ad 95 f5 92 46 61 bf
       -0.0030694637320996697 -0.0021088476466297446
0003d0 fd 61 47 17 d7 48 45 3f 1c 06 89 f7 3c 02 52 bf
       0.0006495523689933888 -0.0010991664295406716
0003e0 2a 1f 90 61 a3 b2 5a 3f d2 5e c4 ed 17 5d 65 3f
       0.0016295047300917778 0.0026078669890344597
0003f0 7c 05 25 80 5d ee 52 bf 08 8d 06 d2 ec a3 41 3f
       -0.0011554635135130045 0.0005383402204199037
000400 23 83 af f4 a9 9a 57 3f 92 f6 9d ab d8 1e 24 bf
       0.0014406833386077587 -0.00015350718404854143
000410 66 4f ac 35 c1 32 58 bf 37 e5 38 65 33 61 6f bf
       -0.0014769446194735302 -0.0038305286232370966
000420 da c3 b7 6c 2f 21 53 bf 88 4d e6 1d 6c 4e 4f bf
       -0.001167579949534528 -0.0009553935922660831
000430 63 5d 3d 22 73 40 5e 3f bb e8 b1 47 05 2b 60 bf
       0.0018464207032219064 -0.001973638832677952
000440 9b c5 93 c8 ec 9e 45 3f 91 ae 59 4c ae b9 46 bf
       0.0006598144692856912 -0.000693521601261309
000450 7f 65 ce 31 3a 22 40 bf 20 df 7a 8c ec fb 54 3f
       -0.0004923614647964063 0.0012807664915452446
000460 b5 93 32 55 06 12 5e 3f 95 70 db 2a b5 f9 5c bf
       0.0018353521198062165 -0.001768519326495831
000470 87 f7 0c 01 61 3b 5a bf a9 f6 0c e3 2f ad 46 bf
       -0.0016010711007789795 -0.0006920322249254945
000480 0b 6b ce 3a 6b 17 3b 3f 07 aa 1b ee 1a ee 74 3f
       0.0004133831778802422 0.005109887309780798
000490 ed 1f 85 47 45 37 48 bf 6f e9 0c a9 1c 67 30 3f
       -0.0007390106466482728 0.00025028657642036425
0004a0 42 09 d0 1f 99 dc 57 3f c4 90 fd 1d d9 6c 54 3f
       0.0014564032892399746 0.001246654537646428
0004b0 be 37 06 c5 9b 48 5c bf 21 e8 9a 23 b4 40 46 bf
       -0.0017262955844645623 -0.0006790999970782732
0004c0 17 df 41 38 83 5e 3a bf 5c 22 2d 20 2f 0f 40 3f
       -0.00040236190421393106 0.000490091333952124
0004d0 90 2f 35 c7 bb f9 51 3f bd c8 1d 8e 3d 3b 67 bf
       0.0010971387644813403 -0.0028358652352205847
0004e0 38 8f b4 3c a0 fe 5c bf 9c 38 9c 74 5b 9e 50 3f
       -0.0017696919265483679 0.0010143178100779143
0004f0 d3 b2 f8 74 35 74 52 3f b9 04 1b e3 38 10 52 3f
       0.0011263391533119962 0.001102500490034948
000500 d9 84 e6 f2 70 5e 62 bf 4e f4 32 1b c0 34 39 3f
       -0.0022422987014612925 0.0003846138963117849
000510 16 3e 97 c2 16 31 54 3f cf 0a 2e 16 a2 a8 3f 3f
       0.0012324068323897922 0.0004830737799964958
000520 95 95 4d 81 d0 c0 43 bf f5 a7 1c f5 c3 71 49 bf
       -0.0006028192607174127 -0.0007765013526512809
000530 56 af b4 f9 01 33 12 bf 65 84 de 0b a6 7c 2a bf
       -6.942462498632276e-05 -0.00020207907612948824
000540 40 06 e1 f4 da 31 32 bf c0 b4 3f 54 3a b4 5f 3f
       -0.00027762981051546523 0.0019350595111931462
000550 02 92 31 c8 44 88 5a bf 79 96 08 08 f9 0a 50 3f
       -0.0016194030474930847 0.000979178614337965
000560 fb 7e 27 f3 c3 7f 38 3f 1d ca 16 6d 65 9a 57 bf
       0.0003738263505095177 -0.001440619515375225
000570 7a 19 ef 59 70 47 18 3f cd fd c1 fc 01 56 50 bf
       9.261725652640564e-05 -0.0009970683486527521
000580 ed 87 5b ed 51 37 51 3f 53 b3 ff 71 5b 2c 58 bf
       0.0010507869787308402 -0.0014754193325600864
000590 2f 81 8d 45 25 2c 63 3f 00 87 e8 c3 c4 c5 36 bf
       0.0023403861963943377 -0.00034748128737947803
0005a0 71 94 af ef 1c 3e 70 3f 15 4c 6f 0e d6 d2 52 bf
       0.003965485603633843 -0.0011489000696556274
0005b0 79 e3 65 ab 88 b4 2e 3f 43 55 c8 3d 94 90 3e bf
       0.00023426216439384107 -0.0004663812558488198
0005c0 b4 3f ed 68 8b ee 50 3f fc 30 25 6e 60 f1 59 bf
       0.0010334359573853482 -0.0015834275914868292
0005d0 52 a5 fa df d8 6b 59 3f 8a 14 87 b7 32 05 0e 3f
       0.001551591674721149 5.725918794356143e-05
0005e0 24 d3 4f c4 e8 97 32 3f db ac 0c 37 e7 45 52 3f
       0.0002837126997399678 0.001115299030241704
0005f0 ac 49 66 40 6c c0 4e 3f 92 e9 12 07 ab 29 54 3f
       0.0009384659359048995 0.001230637568638036
000600 de 35 8f 97 91 2f 31 3f 7f c7 48 b1 fc f8 60 3f
       0.00026223473065275875 0.0020718512917249905
000610 b4 02 da b9 b8 4a 71 bf 4a e0 81 98 88 17 6a bf
       -0.004221650682325762 -0.0031850498090158262
000620 b7 ca 75 00 bd db 58 3f 30 79 fe a1 46 32 58 bf
       0.0015172334404637674 -0.0014768304608661735
000630 cf 9d f7 ed b8 97 5f bf 6a c9 cf 26 3e 3f 49 3f
       -0.0019282632782678837 0.0007704785799645235
000640 ce 69 4e a6 00 be 4c bf cf 30 ca 58 9a d7 41 bf
       -0.0008771422550240494 -0.0005445006987243819
000650 ed d4 f7 6d 95 ae 64 bf a4 64 ff 15 3d be 36 3f
       -0.002524654249777761 0.0003470324645583145
000660 5b d0 16 05 ad 57 50 3f c1 ef 6a c8 d6 7e 43 bf
       0.0009974660537013433 -0.0005949543709315928
000670 a3 72 da 09 d1 c4 69 3f 32 1d 6e 2e 13 15 51 bf
       0.00314560726003628 -0.0010426223104518903
000680 4e cf 24 60 03 50 35 3f 88 59 a8 32 bf e0 5f 3f
       0.0003252037278287282 0.0019456736723718355
000690 db 8d 5d 64 06 ab 55 3f 83 9a e3 05 ab 09 14 3f
       0.0013225138113391796 7.643801061228178e-05
0006a0 3a fe 87 4c 70 f5 5c 3f 43 67 95 b9 e2 f1 5e 3f
       0.0017675015134272069 0.0018887247191145685
0006b0 c0 19 31 12 1c af 54 3f 77 e9 52 e9 8c c4 fb be
       0.0012624525195562425 -2.6481413972526007e-05
0006c0 94 87 f2 63 74 5f 59 bf c7 8f 75 a1 28 c2 54 3f
       -0.0015486370682897587 0.001266994169633927
0006d0 b5 c4 fc 33 93 17 58 bf ed 8b 38 4d d9 66 4e 3f
       -0.0014704644708667784 0.0009277878802474972
0006e0 94 bd de 3b bc ab 59 3f 75 f1 77 1f f1 f9 68 3f
       0.001566823789726478 0.0030488690788372194
0006f0 5e c9 9b 18 a5 d9 52 bf cc ed 82 02 e3 80 64 3f
       -0.0011505234019152026 0.0025028642449720136
000700 bc a3 88 07 c7 05 5b 3f 34 13 0b b4 0e de 05 3f
       0.0016493266722454733 4.170877810375507e-05
000710 c4 07 53 71 ba f5 36 bf e6 b0 78 2e 27 2e 50 3f
       -0.00035033990691257463 0.0009875662452812294
000720 ae 8d bd bd 22 03 65 3f ca 95 db 9a 58 fa 24 3f
       0.002564971784453105 0.00016004878619139815
000730 00 bf 2a c3 26 07 55 3f a1 00 8d e6 cd d6 2e bf
       0.0012834433115748722 -0.0002352835029118027
000740 c6 f2 db 9f de da 62 bf a8 7b 54 45 77 92 39 3f
       -0.002301630795839979 0.0003901997746015803
000750 c5 89 c6 68 d5 aa 41 3f 15 5b be 36 38 b5 2d bf
       0.0005391637837884258 -0.00022665320591094192
000760 48 9e 0a 8d 75 5f f2 be d3 a6 0f 84 bb 63 5f 3f
       -1.7521750865027893e-05 0.0019158679208381337
000770 4f 1f 7d ef 03 93 53 3f 77 50 d1 11 eb 10 4d bf
       0.0011947191651006832 -0.0008870265770704173
000780 30 13 66 99 37 e0 5b 3f 2d ae d2 83 63 47 59 bf
       0.0017014067612716836 -0.0015428993058702698
000790 96 36 84 94 b7 91 59 bf 55 77 c8 d9 6d 70 3e 3f
       -0.0015606205725506076 0.0004644649687025511
0007a0 d1 c9 ad 72 09 64 36 3f dc 47 2a 3c 0f f8 43 3f
       0.0003416560236281482 0.00060940498254269
0007b0 83 7f 0a 80 69 c7 4d 3f fc 9a 86 84 c1 e5 44 3f
       0.0009087815415860099 0.0006377406034986095
0007c0 42 02 f4 ec b4 f6 56 bf 58 66 57 81 3c ee 5e 3f
       -0.0014015929080529875 0.0018878546592219405
0007d0 ed af 30 bf 92 92 3d 3f c9 c1 cf 07 f5 4d 50 bf
       0.00045124132811014025 -0.000995148933039857
0007e0 6d 10 b4 be a5 4b 28 bf e1 79 a7 d7 df 21 59 3f
       -0.00018535993817903347 0.0015339551888399127
0007f0 42 34 1e 1e 87 4a 4f bf 88 6e aa 77 f6 47 57 3f
       -0.0009549293283598397 0.0014209658535610254

b1 f8 [1, 16]
000000 d2 2a 80 a6 1d 9c 71 3f 9e 1e 65 78 3d 11 a2 3f
       0.004299274274681424 0.03528778166451939
000010 f8 5a b0 ff 67 cd 7d bf a3 55 90 d1 f4 69 af bf
       -0.007275968785527047 -0.06135525758888185
000020 03 60 70 5a 07 1a b1 3f 22 97 b8 ca 9f 5a be 3f
       0.06680341680510087 0.11857031535381826
000030 19 90 87 ab 9f 49 91 bf e6 d4 a1 19 48 ab 3c bf
       -0.016882414669353894 -0.0004374552751252439
000040 4f ea af 71 89 65 82 3f 25 ec a4 0b c1 dd 9b bf
       0.008982728750187933 -0.02721311219759683
000050 e6 d3 35 42 69 60 67 3f c8 e6 eb 7c eb 44 93 3f
       0.002853589614171248 0.018817595958330796
000060 df ef f2 e3 6b 95 91 3f 04 bf ee 1d 7f ca e6 3f
       0.017171560085202372 0.712218817197908
000070 6a d1 33 3d db 63 a6 3f db 71 c3 40 1c e4 b2 3f
       0.043730593892095396 0.07379318791522087

W2 f8 [16, 16]
000000 53 b5 50 31 b6 b8 01 3f e8 c3 e5 db 4b 91 67 3f
       3.380113609128634e-05 0.0028768998737906844
000010 62 4a 22 4b 54 f6 59 bf b9 3e b2 0b 17 e3 68 3f
       -0.0015846083811409607 0.0030379724608521033
000020 d4 c6 82 c0 dc 7c 56 bf e6 6c d3 8e 19 3e 4c bf
       -0.0013725429326253884 -0.0008618950647830941
000030 66 3a 5a ab a6 c5 34 3f 32 7a 2b 1f b6 63 2d 3f
       0.00031695670200174717 0.00022422407308560346
000040 f0 93 b8 a3 fc a1 63 3f 0f d0 4d 17 32 96 34 3f
       0.0023965772977754193 0.0003141281406933158
000050 9b 8a a2 99 df 70 54 bf f7 52 2f eb ef fe 30 3f
       -0.0012476142497141243 0.0002593360651961663
000060 3d ba 46 47 1c 01 31 3f 1f 25 16 7b 28 96 52 3f
       0.00025946560279069606 0.0011344333000543117
000070 55 9a 1d ae 03 2c 53 3f f3 7a 3f 03 12 09 3a bf
       0.001170161813627187 -0.0003972691513335756
000080 72 fd ab 15 f2 7c 38 3f b3 cc 37 8c 3e 98 51 bf
       0.0003736582781783327 -0.0010738955323830568
000090 7e 63 11 96 c9 25 53 bf 4a 14 38 54 7d ab 17 3f
       -0.001168677197958184 9.029343078033425e-05
0000a0 e9 58 10 7f 7c 22 4a 3f 85 cd c1 cf 95 10 59 3f
       0.0007975681202221616 0.0015298331263949594
0000b0 43 1d c2 97 f3 36 60 bf a0 fa b1 8e f0 c4 38 bf
       -0.001979327933500892 -0.0003779494570110096
0000c0 10 f0 62 91 5c 9c 4b 3f 7c ee da 97 6b c2 66 3f
       0.0008426143638398127 0.0027782536916143834
0000d0 38 9c 89 d9 6f b4 1e 3f 28 92 2d ca db 09 62 bf
       0.00011712963749631398 -0.0022019665497501513
0000e0 c6 b2 64 5d fa 71 1a 3f 0c 70 5c 67 dc 50 26 3f
       0.00010088053327157306 0.000170256523852497
0000f0 e7 25 7a 7e 04 94 53 bf d9 d7 e3 e6 88 82 29 bf
       -0.0011949581038684877 -0.0001946251026720403
000100 a6 a5 f6 2d de 1e 54 bf c6 46 8f 18 28 30 4e bf
       -0.0012280626031987234 -0.000921268060773716
000110 3e 2c 52 25 40 8b 37 3f 90 41 90 d2 93 bf 5e 3f
       0.0003592521291657136 0.001876730306552419
000120 8b 9c a5 a6 e4 60 51 bf a1 a9 85 3d ac ac 48 3f
       -0.0010606987876487252 0.0007530060784522349
000130 3e 18 db e7 e0 16 68 3f c8 1f d3 a6 e0 b5 16 3f
       0.002940596836967151 8.663352646742708e-05
000140 d0 d5 87 3e ce b9 68 bf 7d 82 4d 9d 33 04 2a bf
       -0.0030182865341383605 -0.00019848947581648297
000150 17 fc a6 f6 cf fb 62 3f 2b 84 a0 ee 69 cd 49 3f
       0.0023173391138864396 0.0007874266859780923
000160 5d 64 a9 5f f1 d2 49 bf 0d 13 e3 cc 7f f7 70 3f
       -0.0007880858023085014 0.004142283649518641
000170 96 f6 7f e1 1c 5b 33 3f 7a 3f 41 2f b1 6e 3e 3f
       0.00029534773921100746 0.000464361436802278
000180 b1 a2 8f 5d 16 86 0d 3f c5 bf fc b0 18 24 5a bf
       5.631213907248323e-05 -0.0015955201269654978
000190 c1 32 83 33 5d de 44 3f ac 8b 0f cf 1e c7 50 bf
       0.0006368594249806723 -0.0010240364902009786
0001a0 4c b8 61 17 5b 14 60 3f 01 a0 25 61 2f 85 58 3f
       0.0019628314139970345 0.0014965975466001427
0001b0 c5 19 86 55 70 8e 1a 3f ea ee 11 0e fd 92 63 bf
       0.0001013046324996664 -0.002389425514193512
0001c0 55 ff 24 4a 7b fa 44 3f f2 16 4f 1d 48 be 74 bf
       0.0006402112960941323 -0.005064279267519943
0001d0 95 9b 87 5f 40 ee 21 bf 14 6e 2a a4 3d 31 55 bf
       -0.00013680015378200448 -0.001293478199534519
0001e0 46 21 85 b6 92 32 42 bf 61 b8 c2 44 2d 8c 25 3f
       -0.0005553451892775028 0.00016439488024872203
0001f0 fa 7f 04 b0 d9 cf 67 bf e8 dd b1 70 b1 6b 63 3f
       -0.002906727953941865 0.00237068802158168
000200 e9 bd 53 61 75 d6 66 3f 31 28 6c 03 cf d3 68 bf
       0.0027878086644859035 -0.00303068573282863
000210 29 20 f7 e9 8a f4 36 3f 90 3d f5 0e 9a 41 40 bf
       0.00035026923611925165 -0.0004961015928674362
000220 19 f4 96 5b e7 e2 57 3f dd 80 8a d8 94 25 3b bf
       0.001457906661342939 -0.00041422733242236863
000230 e1 36 ef 4f 1b fc 69 3f dd 05 47 17 a0 a4 5f bf
       0.0031719716493857496 -0.0019313395870174035
000240 62 88 0f 57 06 ac 3e bf 77 9e 84 72 56 58 6e 3f
       -0.00046801714694145156 0.0037042320656331357
000250 64 11 0e 02 a9 12 43 3f e2 32 ea 7a 00 70 ff 3e
       0.0005820584520824065 2.9981143308921157e-05
000260 78 45 af 9e 5b b1 3e bf 7f 12 61 c8 3e 89 60 3f
       -0.0004683350259116685 0.0020185686326235626
000270 d5 8f 4e 18 e6 75 59 bf 06 ad 4c 88 da 7b 62 3f
       -0.0015539881726249667 0.0022563236438110116
000280 19 91 c6 95 62 f1 69 3f 1f e3 c0 59 c8 c0 4c bf
       0.00316685919661287 -0.0008774736666118144
000290 40 b7 a4 2e 2b 31 3d bf c8 36 f9 77 fd a2 6a bf
       -0.0004454355645461157 -0.0032515478667737054
0002a0 6d 42 1a be 02 fd 40 3f 99 22 36 95 b8 3c 44 bf
       0.0005184424773734937 -0.000617590072963986
0002b0 e4 a8 e7 2b ea f6 36 3f 21 97 5b 50 71 fe 5a 3f
       0.00035041062429165396 0.0016475779133826101
0002c0 9d ef 81 0b 9b a0 61 3f 42 c5 7b fc 45 6d 7a 3f
       0.0021517780515391675 0.006451867469637053
0002d0 ff fc 7b 94 bf b0 48 bf 57 6e e9 90 da da 52 3f
       -0.0007534919213582346 0.0011508116182516093
0002e0 51 18 6a b9 cb a6 52 3f 86 e0 af 8b 74 9f 52 3f
       0.001138400029647286 0.0011366499081742211
0002f0 0a 44 26 6e 53 40 5e 3f 24 bb fa 75 42 02 72 3f
       0.0018463911770576513 0.004396686184619001
000300 ee 41 be 1c 11 94 55 3f 56 0c bd 23 38 52 47 3f
       0.0013170401680079285 0.0007117056006581506
000310 36 55 ba 8f 8a 21 4c bf cf f6 96 8c 3d 6f 66 bf
       -0.0008584906167522835 -0.0027385904438393736
000320 70 9b 06 9c 3b 1e 36 bf 0d e0 bc 38 a6 85 21 3f
       -0.0003374953776308842 0.00013368276665359815
000330 98 c6 0c fd 0e 5d 59 3f 3a fe 7c fe aa 40 2b bf
       0.0015480657932126825 -0.0002079209073091325
000340 13 6b 42 bc f1 f8 44 bf 37 80 de 7a 3c 8d 3b 3f
       -0.0006400280331207729 0.0004204056411882847
000350 73 05 bb 97 4c 7a 45 bf 32 3b 7f d5 d2 8a 6c bf
       -0.0006554483402042968 -0.0034841649867084707
000360 08 34 9e e2 6b 78 45 3f 3c e9 47 f3 7a 02 4e bf
       0.0006552244933445426 -0.0009158230155315371
000370 41 55 ee 9c e0 42 52 3f 6f bb 9c 32 05 63 54 bf
       0.0011145776258890269 -0.0012443114050701661
000380 e6 84 15 10 20 08 4a bf 0b 9c 81 b1 5a a7 48 bf
       -0.0007944256359843332 -0.0007523720587528938
000390 b0 50 17 cd 19 86 3b bf 9b f8 e9 33 2d 13 6f bf
       -0.00041998033438273973 -0.003793323790261272
0003a0 ce 63 98 ef e7 4e 23 bf 0b be 07 46 a7 7d 4e bf
       -0.0001473100781346479 -0.000930506397763099
0003b0 99 75 6d 6d 66 e6 30 3f 72 91 1e 6b 85 54 40 bf
       0.0002578735415477928 -0.0004983569581225435
0003c0 82 ba 73 85 34 eb 55 bf 0a 2b bc 5b d0 3b 4f bf
       -0.00133781556160853 -0.0009531752943713067
0003d0 fb c7 34 73 61 f0 55 3f 6c 8c b3 e4 ca be 53 3f
       0.001339049497641741 0.0012051564579500752
0003e0 5b 69 9f 6a 3d fa 3c bf 2b b1 41 55 fd 41 54 3f
       -0.0004421615545858925 0.0012364362674147182
0003f0 00 fc 70 e9 5e ff 5d 3f 4d 3c e0 03 a1 12 53 3f
       0.0018309046624975789 0.0011641094602088565
000400 4a 3a 5f 00 af 2f 33 bf cc 99 c5 b0 b0 f0 4f bf
       -0.0002927591561928995 -0.0009747374292999266
000410 03 cc d5 53 16 bc 55 bf bd fd 8d 8d bd b2 32 3f
       -0.0013265817682082133 0.000285311963629877
000420 78 c4 14 91 4d 69 54 bf 3c de a4 8c e8 04 65 bf
       -0.0012458093154459598 -0.0025658170681273334
000430 ba 20 c5 ee d3 3c 53 bf ee 53 7e 5d 65 da 55 3f
       -0.0011741704611996488 0.0013338079352014326
000440 8d bb ae 42 b4 ea 4d bf a0 7c 41 a9 12 1c 16 bf
       -0.0009129886797064488 -8.43416585793893e-05
000450 2c cb 42 57 ac 5f 6b bf e3 3c a9 b5 d3 23 2d bf
       -0.0033415189774016665 -0.00022232016893262212
000460 70 bb 73 30 2c 8f 35 bf 92 45 a0 16 e2 e0 53 bf
       -0.0003289683231306106 -0.0012132842916837455
000470 72 b5 f1 2a 96 e0 24 bf 1d 38 74 d4 c8 34 63 bf
       -0.00015928109266686756 -0.002344505544562571
000480 c2 ae 0d 2a 68 87 27 3f 03 9e 79 84 70 50 33 bf
       0.00017951151405825287 -0.0002947115612869923
000490 89 5a b6 5d 14 94 47 bf ad a1 fd 62 03 f8 69 bf
       -0.0007195567554159769 -0.003170019735922311
0004a0 df 04 08 c8 72 9a 4c bf 98 96 1a 1c 73 e2 5e 3f
       -0.0008729038673324327 0.0018850444907142824
0004b0 79 3f 37 6f 5c e5 70 3f e8 a5 52 c6 2b 08 59 3f
       0.004124985763567562 0.0015278270232478245
0004c0 28 11 ff 38 6a 6d 58 3f 83 81 17 b1 86 07 3d bf
       0.001490930302666513 -0.0004429534756962493
0004d0 95 39 8c 28 a1 3d 36 bf 9c de 35 4f fd 6f 66 bf
       -0.0003393667653178942 -0.002738947625115019
0004e0 7d d9 5f 9b 51 2f 53 3f e4 13 d4 a4 4a f2 4d 3f
       0.0011709496443451366 0.0009138931724527147
0004f0 f5 ca 16 81 86 52 50 bf 91 3e 89 ad 3a 30 5c bf
       -0.000996238090334498 -0.0017204831148268966
000500 70 8b 03 fe 84 f4 3f bf 56 26 18 f4 ca 09 5d bf
       -0.0004875969589319051 -0.001772354313632004
000510 82 65 ec b0 1f 0d 6f 3f 88 33 76 0c b6 e0 35 3f
       0.0037904375998436 0.0003338283972532043
000520 84 28 a5 fe 0d 45 44 3f 66 a0 56 05 89 b6 38 bf
       0.0006185835202725675 -0.00037709088550253453
000530 ec 07 37 cd 05 f1 6f bf f6 8b 7e e6 63 4b 2c 3f
       -0.0038991082489880837 0.00021586985098762085
000540 55 cb 86 7d 81 6a 3e bf 78 ff d7 eb b0 81 44 3f
       -0.0004641119135399459 0.0006258119462358843
000550 e3 c2 f1 20 ce ed 4c bf 00 b0 d0 f4 53 c3 60 3f
       -0.0008828407752741987 0.002046264626661909
000560 b5 3d 92 f3 ba 4c 07 3f de b2 59 ef ac 18 5d bf
       4.44407036833643e-05 -0.0017759026353829015
000570 77 c6 59 68 9a cd 56 3f 3c c2 bc ad 17 e3 30 3f
       0.0013917930495178901 0.00025767639248200683
000580 2f 93 88 91 ad 3d 1d 3f e1 f0 99 50 a6 93 4a 3f
       0.00011154529455177359 0.0008110582432006263
000590 35 34 fe 0d a9 2e 6a 3f 1f 0b 23 36 52 40 4b 3f
       0.003196077523119923 0.0008316422866062357
0005a0 c2 f2 e3 1d 08 e8 56 bf 3f 02 6b ca fc a9 43 bf
       -0.0013980941071728846 -0.0006000980691496862
0005b0 d7 06 16 d8 8f a2 3c 3f 52 f9 25 29 3c 50 57 3f
       0.000436935537514766 0.0014229381091293747
0005c0 61 da ce 9c 24 b7 2c bf 34 00 63 53 e0 a1 52 bf
       -0.00021908113413156557 -0.0011372271233511923
0005d0 c0 79 60 0c 21 2a 52 bf bf ee e4 6d ef 5e 58 3f
       -0.0011086771714939742 0.001487478082323898
0005e0 f6 da 17 fe cd c8 47 bf 70 6a ae 25 e6 17 65 3f
       -0.000725842077541865 0.002574872499690621
0005f0 39 2d 77 a2 64 3c 74 3f 49 07 08 ca 1c b2 36 3f
       0.0049404078521988965 0.0003463096891494944
000600 f2 ea 6b c5 4b 77 3f bf cf 49 f9 97 7c 15 27 3f
       -0.00048013305551790266 0.00017611642759847313
000610 f2 8e c8 50 0e 75 55 3f 1f ca eb 58 e1 3d 60 bf
       0.001309646587409338 -0.0019826318087947793
000620 de 18 06 4d 58 eb 46 3f de 10 42 cc 61 c5 68 3f
       0.0006994420200932235 0.0030238065829185498
000630 22 e6 81 8c e9 e6 62 bf c1 1b 4d 26 4c a7 6b 3f
       -0.002307373190032506 0.0033756720826292057
000640 03 e4 87 3d 15 5a 4e 3f a0 5d 05 b5 c8 2e 63 bf
       0.0009262660706205187 -0.002341644292908021
000650 d6 0b 74 05 56 cc 46 bf 50 a1 40 01 5a 74 41 bf
       -0.0006957454706085729 -0.0005326690175069624
000660 de 00 33 bb f0 cb 62 bf dc 8b 95 60 bd 92 44 3f
       -0.002294511965004727 0.0006278443044432885
000670 5c eb 93 84 e8 a5 31 bf 26 11 47 a6 40 80 59 bf
       -0.00026928831773858296 -0.00155645669393418
000680 23 8b 24 0c fd f5 84 3f 6b 02 05 01 8d b3 66 bf
       0.010234810765330565 -0.0027711633667027355
000690 02 26 61 57 5d ba 73 3f d6 6d 72 3e df fa 56 bf
       0.004816403021388195 -0.0014025859943903505
0006a0 e0 aa 6b 12 78 d8 88 3f 3c b3 44 6e 79 eb 64 3f
       0.012131631910468454 0.002553689164548704
0006b0 51 59 56 be 76 47 50 bf b5 9b 0b 9c 2d a4 45 bf
       -0.0009936008076230805 -0.0006604407027140854
0006c0 18 b2 ae 9b 99 8f 78 3f ad 7c d0 20 cb 87 94 3f
       0.0059963226621389185 0.020049260976631334
0006d0 9e 21 a6 7d 0c 95 7e 3f a2 19 57 8c 8d 10 28 3f
       0.007466362755060988 0.00018359878428793076
0006e0 bc 54 09 6e 67 57 84 3f 97 f8 c4 6c a8 0e 3a bf
       0.009932334943338332 -0.00039760219512519887
0006f0 d8 ed 58 45 1e 9d 4a 3f 35 52 8a 48 44 85 64 3f
       0.0008121869856902398 0.0025049527797114343
000700 b5 1f a1 a9 9d 4d 32 3f 7f 5a 26 06 31 b3 54 3f
       0.00027928446946079026 0.0012634257078382447
000710 57 84 14 bc 1f a9 6e 3f f0 42 03 ee 2f 87 36 bf
       0.0037427539651991126 -0.0003437511459312556
000720 ed f3 80 4a 94 ba 55 bf 54 52 40 5f 4c c1 58 bf
       -0.0013262222437468954 -0.0015109296628043238
000730 0e c7 5a c6 fd cf 0d bf b4 dc 5f 8b 85 45 5a bf
       -5.686276635453849e-05 -0.0016034893174017685
000740 a1 75 58 cb 8a 95 52 3f 97 f2 87 13 9c 14 56 3f
       0.0011342864430682125 0.0013476871664572004
000750 d1 da 87 ea e5 95 52 3f 02 3e f5 27 2c ec 5f bf
       0.0011343713068733728 -0.0019483977519775268
000760 4c de 20 42 ec ce 51 bf 85 a8 a1 0f 28 29 4a bf
       -0.0010869319162462197 -0.0007983632670065666
000770 6e 28 65 85 a0 31 23 bf 2c d4 05 8e 4a 57 35 bf
       -0.00014643749700332963 -0.00032563753304454507
000780 04 7f 68 6b 49 dc 4e 3f 41 2f f4 bf 60 0a 65 3f
       0.0009417875760995014 0.002568425144664405
000790 a9 85 98 64 b7 e4 42 3f f6 b0 48 73 58 b7 45 3f
       0.0005765815232658306 0.0006627256285063599
0007a0 fc 95 c7 8a c0 47 4a bf 26 fa 1a d2 ff cf 60 3f
       -0.0008020105502139492 0.0020523067949789362
0007b0 3b 2d ec 85 23 9a 4f bf de 49 3e 60 21 16 52 bf
       -0.000964419694214603 -0.0011039091050163356
0007c0 d9 12 3e 4e e8 66 52 3f ab 31 23 19 e8 d3 75 3f
       0.0011231678590501364 0.005329043038909391
0007d0 b4 42 c4 e7 fb e6 47 bf 77 91 64 68 60 45 1c 3f
       -0.0007294397360358613 0.00010784531523150795
0007e0 cf d4 bd cc fb 02 54 3f 67 2c d3 99 ab 1f 5f 3f
       0.001221414468969773 0.0018996406354741203
0007f0 f4 77 82 c9 f8 06 5e bf a9 e7 01 30 95 a7 5b 3f
       -0.001832716900060924 0.001687904063173632

b2 f8 [1, 16]
000000 ab 4d 25 cb c2 e8 d4 3f 11 d6 10 be 7c af 8e 3f
       0.3267065986485373 0.014983152914378047
000010 60 2e 10 43 de 2f c4 3f 82 6b 54 96 43 30 84 3f
       0.15771082186289487 0.009857681298447
000020 05 8a 75 f6 89 6f d7 3f 0b 58 7b ba 2e 31 a0 3f
       0.36618279522204517 0.031625232948201264
000030 ea 7e 55 f2 0a c1 a4 bf 65 16 e1 7f 7d 29 83 3f
       -0.04053529937914198 0.00935648008829588
000040 ac cb 10 a9 78 ef ca 3f 72 80 9d ef 39 c5 e5 3f
       0.21043308501392965 0.6803254775986842
000050 58 31 13 a3 61 cf cb 3f b8 8b 5a 73 de d6 9f bf
       0.21726627791066266 -0.031093097487097515
000060 c5 17 21 3d 40 9e d7 3f bc ec 5b 96 38 4c 90 bf
       0.36903387040763064 -0.01591576020926476
000070 fc c4 24 e6 37 c0 7a bf c7 c3 a6 4b ce 0e b8 3f
       -0.00653096995874702 0.09397591921766867

W3 f8 [16, 1]
000000 b9 e1 18 05 a6 9b a3 3f 13 a0 ad e9 53 b6 5b 3f
       0.03829687893125162 0.0016914195500366033
000010 a8 75 de ad 64 5a 92 3f 21 d0 99 6a d3 c5 32 3f
       0.01792294799053243 0.00028644954236445487
000020 7e c4 01 67 06 db a5 3f 15 03 2c 71 0e 2b 74 3f
       0.04268665320786001 0.004923874296537863
000030 81 3c a5 df 95 5b 65 3f 4d de 50 63 fe 31 2b 3f
       0.002607147905258567 0.00020748358079612992
000040 ae 16 8f 42 30 de 98 3f 71 0a bd db 00 5a b4 3f
       0.024285081922946254 0.07949834217746755
000050 5d 30 7a 84 6f 0f 9a 3f 0d e8 f9 8d b2 d4 4b bf
       0.025449507199070676 -0.0008493301247221044
000060 ef 96 fb 36 2a 52 a5 3f 13 4e cb be 5a f3 19 bf
       0.04164249344993986 -9.899369588178162e-05
000070 73 33 56 cb 20 2b f1 3e e9 8f f8 bc f8 a4 87 3f
       1.637312808138191e-05 0.011545127169547658

b3 f8 [1, 1]
000000 43 b6 37 8f 93 8e f7 3f
       1.4723086924017401
