best_model_weigths_diesel.npz (npz, 27259 bytes, 132 tensors)

W0 f8 [27, 2]
0	0xbf4edaf36cbd4470	-0.000941628322360567
1	0xbfc7ddb4a761d054	-0.18645342038110135
2	0x3fb3e4af013dcfa7	0.07770818500813324
3	0xbfd910b68bb930b6	-0.39164508480895266
4	0xbfc6e49c6a4d7324	-0.17885165396264668
5	0xbfd0693875350a1a	-0.25642215200437735
6	0xbfdcd96512e82473	-0.45076872679107466
7	0x3fcd6b8b92058805	0.22984451894723193
8	0x3fb2001cfe2979d3	0.07031422810675929
9	0x3fc0ed405d5cb717	0.13224033888530393
10	0x3fb3f60cccfef53a	0.07797317509444648
11	0xbfd53fb793af2142	-0.33201398298526297
12	0x3fb9655fd98b1d5b	0.09920310078733989
13	0x3fd337f52a581a12	0.30029038558169063
14	0xbfa53ba5316e1bc6	-0.04147068241496003
15	0xbfc415c288066c5c	-0.1569140590844168
16	0xbfb4363243411f5b	-0.07895197050049545
17	0xbf72bba3f93f57bf	-0.004573479196514129
18	0x3fd169a899d4bc0d	0.27207388899381685
19	0xbfbc77a08d88913b	-0.11120036559492956
20	0x3f985f0d6f5de79a	0.023800096437731712
21	0xbfd11ebd5924a9cf	-0.2675011988200397
22	0x3fd56f247aa5abeb	0.33490859963666136
23	0x3fcd4b76b2ed2f7f	0.2288654683746891
24	0xbfd41e81904009be	-0.31436194502762393
25	0xbfd3951d96921e9e	-0.30597629265001014
26	0xbf682a926c7865cf	-0.0029499873960616495
27	0xbfdb55f5fb8f9644	-0.4271216351174625
28	0x3fbe589cb58dc21a	0.1185396140333598
29	0xbfcfa1857e5c7912	-0.24711674375516474
30	0x3fc146d5c1dc0586	0.13497421232026968
31	0x3faca76b7a4ea4bf	0.05596481197364644
32	0xbfdd5042884656cb	-0.45802367504198277
33	0x3fd5ea416fc39d1f	0.3424228278585861
34	0x3fe1647a4074d4ed	0.5435153254426531
35	0x3fbca5f1443099a1	0.11190708079138868
36	0xbfe2086602d198a4	-0.5635252051404405
37	0xbf99dd01f53dfe57	-0.025257139771836936
38	0xbfcd95b225f2ca16	-0.231130856065264
39	0xbfe8d012e6d35eef	-0.7753996380151572
40	0xbf92be74fa23be8a	-0.018304660575209776
41	0x3fd99c03dc58771c	0.4001474048435385
42	0xbfbde1fbc7bc5e2a	-0.11672948480951875
43	0xbf9eb32e95e51eff	-0.02998039998899937
44	0xbfb5ca154def0ffc	-0.08511479523355087
45	0x3fc692863e7cf335	0.1763465695493324
46	0xbfe097a5c3e242d8	-0.5185116601806739
47	0x3fcaa739d95d4992	0.2082283316945675
48	0x3fd9ac9dfd68536a	0.4011607145960655
49	0x3fc33dcb741d6777	0.150323325821599
50	0x3fd3bb52336ecf7e	0.30830817244281394
51	0x3fc78c6c444552c4	0.18397286733183738
52	0x3fe578f2df47f0bb	0.6710142479855884
53	0xbf9e16d2b36c1124	-0.029383938027437342

b0 f8 [1, 2]
0	0x3f847ae147ae147b	0.01
1	0x3f847ae147ae147b	0.01

W1 f8 [2, 2]
0	0xbfe639deb26cd898	-0.694564198004417
1	0x3fe00b4e3da49150	0.501380081554581
2	0x3ff9879c76a0a8c4	1.5956081994905142
3	0x3fd0edc31f6b697a	0.26451185291593726

b1 f8 [1, 2]
0	0x3f847ae147ae147b	0.01
1	0x3f847ae147ae147b	0.01

W2 f8 [2, 2]
0	0x3fe43bf79d263455	0.6323202199288384
1	0xbfd6af6d9dca41e6	-0.3544572869223245
2	0xbfe0b55e2d12e205	-0.5221396332117939
3	0x3fd0a8b5c056bceb	0.26029723914230257

b2 f8 [1, 2]
0	0x3f847ae147ae147b	0.01
1	0x3f847ae147ae147b	0.01

W3 f8 [2, 2]
0	0xbfd0632f93d9e968	-0.25605382383914455
1	0x3fe474b7a91efbc2	0.6392477324624155
2	0xbfff2dd6acbd316d	-1.9486910579317638
3	0xbfcadeb80aa39432	-0.20992184180718848

b3 f8 [1, 2]
0	0x3f847ae147ae147b	0.01
1	0x3f847ae147ae147b	0.01

W4 f8 [2, 2]
0	0xbfb3c8998aa3be8f	-0.0772796596027041
1	0x3ff0191a19035228	1.0061284043378098
2	0x3fa5ca85c6a64840	0.04256074953004019
3	0xbfd0bc93167479a0	-0.2615096778189585

b4 f8 [1, 2]
0	0x3f847ae147ae147b	0.01
1	0x3f847ae147ae147b	0.01

W5 f8 [2, 2]
0	0xbffa3ec27d71de8f	-1.6403221988856875
1	0x3fd1b2ca20db9c4b	0.2765374489667393
2	0xbfcc8840c7b1401e	-0.22290811300854413
3	0xbff6d474f0953440	-1.4268693349615802

b5 f8 [1, 2]
0	0x3f847ae147ae147b	0.01
1	0x3f847ae147ae147b	0.01

W6 f8 [2, 2]
0	0xbff43a5e5a94478d	-1.2642501390696197
1	0xbfe7a054c7de50ed	-0.7383216766052364
2	0x3fc8b2a13a3df769	0.19295134872293865
3	0x3fed8f462c1bda81	0.9237395154476219

b6 f8 [1, 2]
0	0x3f847ae147ae147b	0.01
1	0x3f847ae147ae147b	0.01

W7 f8 [2, 2]
0	0x3fa89f521d0e401d	0.048090520903429225
1	0x3fdd760abaeb682f	0.46032970670569545
2	0xbfdcd3c876239064	-0.4504262117100153
3	0xbfe66e5029160c33	-0.7009659578765252

b7 f8 [1, 2]
0	0x3f847ae147ae147b	0.01
1	0x3f847ae147ae147b	0.01

W8 f8 [2, 2]
0	0xbfd41ee72eafdf93	-0.31438617285993437
1	0x3febff83030888c2	0.8749404010052546
2	0x3fe84ad14bcffb54	0.759133003302717
3	0x3fd52c0cb8326d70	0.3308135794447571

b8 f8 [1, 2]
0	0x3f847ae147ae147b	0.01
1	0x3f847ae147ae147d	0.010000000000000004

W9 f8 [2, 2]
0	0x3ff125093f7dbe9c	1.0715420227169608
1	0xbfa65890a107c0e6	-0.04364444699956653
2	0xbfe7afe8cf6904ba	-0.7402233172398589
3	0x3feb4c1482e13875	0.8530371242757285

b9 f8 [1, 2]
0	0x3f847ae147ae147b	0.01
1	0x3f847ae147ae147d	0.010000000000000004

W10 f8 [2, 2]
0	0x3fad3fb39269a2b1	0.057126628515850604
1	0x3fd146ed50af768f	0.26995404128488415
2	0xbfe0528648e550e5	-0.5100737975831434
3	0xbfc20b15a7ea39ea	-0.14096327494594557

b10 f8 [1, 2]
0	0x3f847ae147ae1473	0.009999999999999986
1	0x3f847ae147ae147d	0.010000000000000004

W11 f8 [2, 2]
0	0xbfdd93dd502a5b7a	-0.4621499331346325
1	0xbfc003f5d565147b	-0.1251208583800326
2	0xbfbc89867dfa70c4	-0.11147347045556716
3	0x3fe84201542a731c	0.7580572742332126

b11 f8 [1, 2]
0	0x3f847ae147ae148a	0.010000000000000026
1	0x3f847ae147ae1481	0.01000000000000001

W12 f8 [2, 2]
0	0x3fe858de684888c0	0.7608482395919722
1	0xbfe821634153d250	-0.7540756488729787
2	0x3ff9cdaab0f8c783	1.6127116120300975
3	0xbfb37fbfa2e51c67	-0.07616803862502906

b12 f8 [1, 2]
0	0x3f847ae147ae147d	0.010000000000000004
1	0x3f847ae147ae146b	0.009999999999999972

W13 f8 [2, 2]
0	0xbfd0a2a67baa465e	-0.2599273879687639
1	0xbfcf77fddf5fa5c6	-0.2458493557635803
2	0xbfda1305bf056081	-0.40741103796381856
3	0x3ff8ff3e88683873	1.5623154953387057

b13 f8 [1, 2]
0	0x3f847ae147ae147b	0.01
1	0x3f847ae147ae1472	0.009999999999999985

W14 f8 [2, 2]
0	0xbfee6a1a12f813e6	-0.950451886223729
1	0xbfbd4e3d605c1e8e	-0.11447509386573015
2	0xc0078f460ded481f	-2.9449578369176517
3	0xbf80b3655aefda06	-0.008154670560526444

b14 f8 [1, 2]
0	0x3f847ae147ae147d	0.010000000000000004
1	0x3f847ae147ae1479	0.009999999999999997

W15 f8 [2, 2]
0	0x3fd6e3bf09737169	0.3576505272192408
1	0x3ff198f2d52d0823	1.0998409583267026
2	0xbff6e674415908c3	-1.431263213410191
3	0xbff18fb2a1d2f818	-1.097582466245063

b15 f8 [1, 2]
0	0x3f847ae147ae147b	0.01
1	0x3f847ae147ae147d	0.010000000000000004

W16 f8 [2, 2]
0	0xbff4af192b8178af	-1.2927486133044501
1	0x3ff1a3f2fc27c437	1.1025266504114037
2	0xbfe4347d21f09ccd	-0.6314073241127517
3	0xbfee2587c5eacf80	-0.9420813432284234

b16 f8 [1, 2]
0	0x3f847ae147ae1479	0.009999999999999997
1	0x3f847ae147ae147a	0.009999999999999998

W17 f8 [2, 2]
0	0xbff84af671ecc291	-1.5183014345349515
1	0x3ff68b71d4a82795	1.409044104281269
2	0xbfd88bd42fd5fda1	-0.3835344760081743
3	0x3fe70acd0d24a3de	0.7200684792234104

b17 f8 [1, 2]
0	0x3f847ae147ae147b	0.01
1	0x3f847ae147ae147a	0.009999999999999998

W18 f8 [2, 2]
0	0xbff4accc08aa4ea4	-1.292186769341165
1	0x3fe187079c23bad7	0.5477331208802195
2	0x3fe17022894f02e9	0.5449383432206477
3	0x3fef9880f3cd316a	0.987366176771997

b18 f8 [1, 2]
0	0x3f847ae147ae1479	0.009999999999999997
1	0x3f847ae147ae147b	0.01

W19 f8 [2, 2]
0	0x3fea9bee76f97cfe	0.8315346072885459
1	0x3ff022c6ef3d01ae	1.008490499996792
2	0xbfc8c7840dd2290f	-0.19358874010897195
3	0xbff27192f7e0297b	-1.152728050483886

b19 f8 [1, 2]
0	0x3f847ae147ae1475	0.00999999999999999
1	0x3f847ae147ae147b	0.01

W20 f8 [2, 2]
0	0xbfc467b4e6e548b8	-0.1594148757381555
1	0xbfc76858ea33c04a	-0.18287192760135645
2	0x3ff3489ac7ae896f	1.2052257347173414
3	0x3ffebb0c2e4cfe71	1.9206659134505595

b20 f8 [1, 2]
0	0x3f847ae147ae1456	0.009999999999999936
1	0x3f847ae147ae14b3	0.010000000000000097

W21 f8 [2, 2]
0	0x3ff32943b26e7a4c	1.1975743265135348
1	0x3ff25dbb3fbc583b	1.1478836526562322
2	0xbfc6be8630d28768	-0.1776893366232415
3	0xbffda1b57f47bbbf	-1.8519797298319955

b21 f8 [1, 2]
0	0x3f847ae147ae1479	0.009999999999999997
1	0x3f847ae147ae145f	0.009999999999999952

W22 f8 [2, 2]
0	0xbfec579b6811aba4	-0.8856942207906866
1	0x3fc0f060a4fab69b	0.13233573966629283
2	0x3fabc1eb3e941e71	0.054213858975398994
3	0x3fecd4994b66a54d	0.9009520027804371

b22 f8 [1, 2]
0	0x3f847ae147ae147a	0.009999999999999998
1	0x3f847ae147ae145c	0.009999999999999946

W23 f8 [2, 2]
0	0xbfec36c677d9fcc4	-0.8816864338731638
1	0xbff1396bb95bdbc4	-1.0765187492922772
2	0xbfee74441ad6418a	-0.9516926311644494
3	0xbfc758bfbce361cc	-0.1823959038072317

b23 f8 [1, 2]
0	0x3f847ae147ae147b	0.01
1	0x3f847ae147ae151f	0.010000000000000285

W24 f8 [2, 2]
0	0x3ff0e90fa320ba63	1.0568996784383209
1	0xbffae9c899811cbf	-1.682076072336528
2	0xbff662b4ff7fabc7	-1.3990983944338369
3	0xbfc882eec72a3794	-0.19149574971055172

b24 f8 [1, 2]
0	0x3f847ae147ae1410	0.009999999999999815
1	0x3f847ae147ae144b	0.009999999999999917

W25 f8 [2, 2]
0	0x3fdb142ac464e299	0.4231058996115649
1	0x3ffd5edfba62bea4	1.8356625824634785
2	0x3fe5ece1fe27cc15	0.6851663555120263
3	0xbff177e199cab57c	-1.0917678840154101

b25 f8 [1, 2]
0	0x3f847ae147ae1408	0.0099999999999998
1	0x3f847ae147ae145c	0.009999999999999946

W26 f8 [2, 2]
0	0x3ff516feb0b6c558	1.318113985337126
1	0xbff4f0411fdc6886	-1.3086558575219285
2	0x3fe1879802d7b40c	0.5478019767302853
3	0x3f7355a0ca876bc6	0.004720333185526953

b26 f8 [1, 2]
0	0x3f847ae147ae1448	0.009999999999999912
1	0x3f847ae147ae149b	0.010000000000000056

W27 f8 [2, 2]
0	0x3f96cb7bb53f9214	0.02226060193778963
1	0x3fd5b169365f1b50	0.3389533072444708
2	0xc00286f3462fa672	-2.315893696145218
3	0x3fecafab429d5e81	0.8964439679211439

b27 f8 [1, 2]
0	0x3f847ae147ae0f3f	0.009999999999997676
1	0x3f847ae147ae143d	0.009999999999999893

W28 f8 [2, 2]
0	0xbfdbaba80a3068c2	-0.4323520755293765
1	0x3fcdd14c3b090c02	0.23294976122460304
2	0xbfe0a3c6f19c069e	-0.5199923247275426
3	0x3f8f015af6422ef9	0.01513930381795302

b28 f8 [1, 2]
0	0x3f847ae147ae144b	0.009999999999999917
1	0x3f847ae147adfe30	0.0099999999999901

W29 f8 [2, 2]
0	0x3ff32bc9da5e1ef6	1.1981905488955227
1	0x3fe74e900a4a1979	0.7283401680913776
2	0x3ff5b442d3d4901d	1.3565090441343337
3	0x3fe35e9e6d95dc19	0.6053001537646906

b29 f8 [1, 2]
0	0x3f847ae147ae02eb	0.009999999999992201
1	0x3f847ae147ae1864	0.010000000000001737

W30 f8 [2, 2]
0	0xbf95cb45498dfac3	-0.021283228506485907
1	0x4000cd7707180e0e	2.1003246835914586
2	0xbfe5f828e8c66488	-0.6865429445634996
3	0xbfdd8d941a4c5757	-0.46176626747307153

b30 f8 [1, 2]
0	0x3f847ae147ae1463	0.009999999999999959
1	0x3f847ae147ae0c5d	0.009999999999996395

W31 f8 [2, 2]
0	0xbfae8e296c1ae663	-0.05967835850374283
1	0x3ff48e4189ab7329	1.284730470440261
2	0x3ff84ae33d939a78	1.5182831197104445
3	0x3fe302baa71a67f7	0.5940831435902955

b31 f8 [1, 2]
0	0x3f847ae147ae1241	0.009999999999999011
1	0x3f847ae147ae0d0c	0.009999999999996699

W32 f8 [2, 2]
0	0xbff5e6a1a4f79a59	-1.368806499865647
1	0xbff000566b701f97	-1.000082416228883
2	0xbfd161f515bf6002	-0.27160384296212225
3	0xc000c4fa39a26a8b	-2.09618039156823

b32 f8 [1, 2]
0	0x3f847ae147ae1383	0.00999999999999957
1	0x3f847ae147ae17fc	0.010000000000001556

W33 f8 [2, 2]
0	0x3fe135289a52272f	0.5377390874939233
1	0xbface414de410dbd	-0.05642762387335718
2	0xbff872467a654ec1	-1.527899244411785
3	0x3fe670f53999b2b0	0.7012888073928334

b33 f8 [1, 2]
0	0x3f847ae147ad7029	0.009999999999927027
1	0x3f847ae147ae92aa	0.010000000000056037

W34 f8 [2, 2]
0	0xbfe44543a7ffc048	-0.6334551125746737
1	0xbfe75638ea18f4d4	-0.7292751857964057
2	0x3fdffee577d9eabc	0.4999326391622778
3	0xc00489a6db71f2d7	-2.567212786116538

b34 f8 [1, 2]
0	0x3f847ae147af0f00	0.010000000000111253
1	0x3f847ae147ae157c	0.010000000000000446

W35 f8 [2, 2]
0	0xbfe98b0786094299	-0.7982213609594339
1	0xbfe1080067e086b5	-0.5322267559860935
2	0x3fe35e3a8722c3b3	0.6052525176402156
3	0xbfd050cc7947940a	-0.2549315628405685

b35 f8 [1, 2]
0	0x3f847ae147ae041a	0.009999999999992727
1	0x3f847ae147ac6614	0.009999999999808863

W36 f8 [2, 2]
0	0x3fec03e9afa4c8c7	0.8754776411572259
1	0xbfe71fc7bccb7a91	-0.7226294219397734
2	0x3ff4ad013d874b29	1.2922375110108055
3	0xbfacc7e400245c3d	-0.0562125444577579

b36 f8 [1, 2]
0	0x3f847ae147acc23d	0.00999999999984979
1	0x3f847ae147ac90ca	0.00999999999982783

W37 f8 [2, 2]
0	0xbfe91dcbad0d56c1	-0.7848871593402792
1	0x3fe7ebda504b17bb	0.7475406234959715
2	0x3ff1be000adbf049	1.108886759203431
3	0x3fea166bc4d48a12	0.8152369350758042

b37 f8 [1, 2]
0	0x3f847ae147ae0b44	0.009999999999995908
1	0x3f847ae147ac5674	0.009999999999801924

W38 f8 [2, 2]
0	0x3ff47f70f2cddccd	1.2811135754143834
1	0xbfe08ae00df9af71	-0.5169525406795242
2	0xbfe572f7e9523581	-0.6702842289975451
3	0xbfd215e69533a05e	-0.28258671350932285

b38 f8 [1, 2]
0	0x3f847ae147adeb36	0.009999999999981673
1	0x3f847ae147b46a6b	0.010000000000720285

W39 f8 [2, 2]
0	0xbff4405615cb7ab7	-1.2657070971833215
1	0xbfcbf03d4f2584ca	-0.21826902737215043
2	0x3fe55b038ee550cc	0.6673600951130765
3	0xbfd87e226f98afa9	-0.3826986398514643

b39 f8 [1, 2]
0	0x3f847ae147b9ba56	0.01000000000132421
1	0x3f847ae147b26b05	0.010000000000493179

W40 f8 [2, 2]
0	0xbff1d63a9881d047	-1.1148019749935132
1	0xbff0cf6fffe69188	-1.0506439205283602
2	0xbfda0937f1203632	-0.40681265399402655
3	0xbfc8b9c8cec45af6	-0.19316969009442858

b40 f8 [1, 2]
0	0x3f847ae147a394f1	0.009999999998806493
1	0x3f847ae147ae8564	0.010000000000050142

W41 f8 [2, 2]
0	0xbfce051a1cd8efde	-0.23453070076527543
1	0xbfc8632b2dc7e652	-0.19052638755219903
2	0xbfe3d01178b8fb5f	-0.619148956095028
3	0x3fdefe733ed11fae	0.48428040632688407

b41 f8 [1, 2]
0	0x3f847ae14fd09484	0.010000000236752855
1	0x3f847ae1526d4552	0.01000000031277418

W42 f8 [2, 2]
0	0xbfd03b54ad37c567	-0.25362126270109403
1	0xc001d3059d354efd	-2.2280380517858007
2	0xbfd596eebcef48f4	-0.33733719301848386
3	0xbfce2d65bdb6b5da	-0.23576041949620113

b42 f8 [1, 2]
0	0x3f847ae128f74636	0.00999999910610248
1	0x3f847ae147a776d5	0.00999999999924787

W43 f8 [2, 2]
0	0x3ffd2a1d447b6b67	1.8227818179209068
1	0x3ff6753617632bb5	1.4036160386628869
2	0x3fefdff7ce58c44a	0.99608984281634
3	0xbfe23124143fde93	-0.5684986491678096

b43 f8 [1, 2]
0	0x3f847ae13f52c823	0.009999999756789951
1	0x3f847ae13d6c5e78	0.009999999701491222

W44 f8 [2, 2]
0	0xbfca46a5b6da86cc	-0.20528098514937765
1	0xbfec0a996cc75a86	-0.8762938618263696
2	0xbfd032ca22cc9573	-0.25309995077471753
3	0xbff88584011d3d53	-1.5325965922855473

b44 f8 [1, 2]
0	0x3f847ae16f5fb4ae	0.010000001155243101
1	0x3f847ae14794b1f7	0.00999999999711408

W45 f8 [2, 2]
0	0x4000fa74fa485e06	2.1222934296927205
1	0xbf96f8250117a1a4	-0.022430971328419994
2	0x3fe20b4b3cf07f7f	0.5638786497329277
3	0xbff3d1a91009a684	-1.23868662132955

b45 f8 [1, 2]
0	0x3f847ae159e44acb	0.010000000530032157
1	0x3f847ae157b4c514	0.010000000466421834

W46 f8 [2, 2]
0	0x3ff3023e864a7a2f	1.1880479093303042
1	0xbff38bc6064c1ba6	-1.2216243978489074
2	0x3ff0b0b0826cfc07	1.0431370825533592
3	0xbff32380381d47a7	-1.1961672012298352

b46 f8 [1, 2]
0	0x3f847ae1562e39df	0.010000000422022147
1	0x3f847ae14766a80e	0.009999999991880084

W47 f8 [2, 2]
0	0x3fc6454452f7192b	0.17398885775600922
1	0xbff03d918799efa8	-1.015031366055135
2	0xbfd79fb6b40ad876	-0.3691231497026658
3	0xbfeeff9c589dc94b	-0.9687024813449993

b47 f8 [1, 2]
0	0x3f847ae192ec88c8	0.010000002189887516
1	0x3f847ae146cbf4d5	0.00999999997429272

W48 f8 [2, 2]
0	0x3ff5de6d76fcd6b2	1.3668036125140302
1	0x3fd92a9e2f6fd408	0.39322619087698785
2	0xbffbacc643b2ad24	-1.7296812672091813
3	0xbfc670a8e38bbe61	-0.175313101869949

b48 f8 [1, 2]
0	0x3f847ae176d9d9f0	0.010000001372856254
1	0x3f847ae15c4f03c1	0.010000000600372762

W49 f8 [2, 2]
0	0x3faa48a7e0c30ff9	0.05133556955982494
1	0xbff84c1718b33f4c	-1.5185767140246353
2	0xc002e2ab4be6c24a	-2.360678284625725
3	0xbff36ed300a9dca7	-1.214556696502578

b49 f8 [1, 2]
0	0x3f847ae14e8c376c	0.010000000199876978
1	0x3f847ae129f278bf	0.009999999134660318

W50 f8 [2, 2]
0	0x3fae192668e10e53	0.05878562956106905
1	0xbfeb0e3655191945	-0.8454848920889978
2	0x3fd7414d61139cc5	0.36336073379648
3	0x3fec6d45ab53b15f	0.8883388849476822

b50 f8 [1, 2]
0	0x3f847acd52482574	0.009999851296941677
1	0x3f847adcd4d94b2e	0.009999966855649935

W51 f8 [2, 2]
0	0xc00002374c7ed559	-2.0010820366102675
1	0x3fdc42886c9da7c8	0.44156084639564286
2	0xbfe3f4225617315e	-0.6235515290696119
3	0x3fb98632f9995bac	0.09970396608092241

b51 f8 [1, 2]
0	0x3f847ae0f42a6d5f	0.009999997569414885
1	0x3f847ab432dbee7e	0.009999664117905423

W52 f8 [2, 2]
0	0x3fb0a3cdb67aaa40	0.0649994440561068
1	0xbfe3857cb80f60eb	-0.6100448222087186
2	0xbfe274cff1ae42d5	-0.5767593117071451
3	0xbfd26cbb03e62256	-0.2878863847804828

b52 f8 [1, 2]
0	0x3f847b106cc25e31	0.010000351256436254
1	0x3f847b19e3beb22e	0.010000421774600001

W53 f8 [2, 2]
0	0xbfd2212ece56d285	-0.2832753195791969
1	0xbfd3519b2f12d178	-0.3018558463766321
2	0xbfb344a848ad9555	-0.07526637815825173
3	0xbfe34dc47fbfd246	-0.603243112097126

b53 f8 [1, 2]
0	0x3f847a975edf1f26	0.009999449331999321
1	0x3f847a8ff9b6da4c	0.009999394233870217

W54 f8 [2, 2]
0	0x3fd2611bad8d8ba1	0.2871770090916304
1	0xbfbfed91f11b195c	-0.1247187818181365
2	0x3fafb207f47178c6	0.06190514429975873
3	0x3fec3350d21ad87e	0.8812641242609656

b54 f8 [1, 2]
0	0x3f8479cad9e7c8c5	0.00999792554373292
1	0x3f847a9bd6e79b08	0.009999482627745873

W55 f8 [2, 2]
0	0xbff1f470277cb292	-1.1221772711243472
1	0xbfe0424c4d562108	-0.5080930242993711
2	0xbfd66095f76bd9e1	-0.34964512979732204
3	0xbff2039899530545	-1.125877951548618

b55 f8 [1, 2]
0	0x3f847bd871425079	0.010001841503516783
1	0x3f847ad00531dbdb	0.009999871405154728

W56 f8 [2, 2]
0	0x3fe106f1f1bd823e	0.5320977899064656
1	0x3feb211e980d5a41	0.8477929086464614
2	0x3f888bd6540f87fa	0.011985468330696126
3	0xbfb7ab75dcb2b6fe	-0.092460028058408

b56 f8 [1, 2]
0	0x3f84af0fd7fb4221	0.010099529055339453
1	0x3f84c7fc9284cdfc	0.010147069188497497

W57 f8 [2, 2]
0	0xbfd291512d27eb8f	-0.29011945161590175
1	0x3fd28968bebf5814	0.28963678958587136
2	0xbfd19b9e1790e14e	-0.275123141301738
3	0x3fdd1ab2e97396e6	0.4547545699882519

b57 f8 [1, 2]
0	0x3f8461162f8e545e	0.009950803114216974
1	0x3f850ed7638d40d9	0.010282213903025571

W58 f8 [2, 2]
0	0x3fbef9792835e811	0.12099416000083375
1	0xbfd1c23a7d01efbe	-0.27747976501245464
2	0xbfe04fbd79538703	-0.5097339028982052
3	0x3f8ff96295db6f68	0.01561238307788644

b58 f8 [1, 2]
0	0x3f8361da066cb592	0.009463980980934737
1	0x3f845a007c3157e1	0.009937289991437783

W59 f8 [2, 2]
0	0x3fcdf6fda967c26f	0.23410006305450135
1	0xc0034f6f61aaad16	-2.413786662121889
2	0xbfd9d91a2fbc8ea3	-0.40387587224743465
3	0xbfd6578469915da6	-0.3490916281638995

b59 f8 [1, 2]
0	0x3f8469c7fd1c5054	0.00996738663847211
1	0x3f84e988fdb35754	0.010211057894064325

W60 f8 [2, 2]
0	0xbfea30f6c0baa8a3	-0.8184770359269077
1	0x3ff4ecd11878dd5e	1.3078165965979092
2	0xbfef125d0265973a	-0.970991615945173
3	0x3fd5716b33d08f79	0.33504753170040363

b60 f8 [1, 2]
0	0x3f83e91e2fda07ec	0.0097219808915305
1	0x3f84130e380d49c7	0.009801970563476993

W61 f8 [2, 2]
0	0x3fd72d74ad9bac22	0.36214940027156406
1	0xbfd2b64a56c1b420	-0.2923761222107846
2	0x3f9947a4c900f7fd	0.024687361496255267
3	0xbfeab87d70829d30	-0.8350207517113741

b61 f8 [1, 2]
0	0x3f44a82b6c790dea	0.000630398943890884
1	0x3f846105464a142e	0.009950677115975717

W62 f8 [2, 2]
0	0xbff0308981f6acd7	-1.0118498875333921
1	0x3fee92551070cf6e	0.9553628274065724
2	0x3ff0e17ffb38fee2	1.0550536931404442
3	0xbfcf4a08460184c8	-0.24444678705461897

b62 f8 [1, 2]
0	0x3f5257c9c0b982d5	0.0011195631258475354
1	0xbf82279cd877691b	-0.008864617687255596

W63 f8 [2, 2]
0	0xbfe194c9cf1c0217	-0.5494126362901309
1	0x3fd3c37145808f3c	0.3088038614971429
2	0xbff773b07ebbd9c3	-1.4657444906748516
3	0x3fd332975bd0b613	0.29996284452758565

b63 f8 [1, 2]
0	0x3fd52312e59a326a	0.3302657358370086
1	0xbf74107c83f8fd99	-0.004898535145513882

W64 f8 [2, 2]
0	0x3ff8cd76e0675876	1.5501621976632385
1	0xbfe36d42ba05462d	-0.6070874818053135
2	0xbfd13aa11b675e73	-0.2692034499754989
3	0x3ff083a087509de4	1.0321355138529436

b64 f8 [1, 2]
0	0x3fd6a5abb74f9fce	0.3538617410799788
1	0xbf48e628010c6050	-0.0007598586399550997

W65 f8 [2, 1]
0	0x3fe07c63e57a06b3	0.5151843530622585
1	0xbfb09b5f0f3bd601	-0.0648707782928213

b65 f8 [1, 1]
0	0x3ff23192b8518d01	1.1371028137153305
