best_model_weigths_e5.npz (npz, 27339 bytes, 132 tensors)

W0 f8 [27, 2]
000000 f8 32 ad 8d b9 36 cf bf 06 6a 14 b2 eb 03 c2 3f
       -0.24385756891060573 0.1407446498422617
000010 7d 13 ae 41 66 59 d9 bf d8 97 80 98 c9 80 c5 bf
       -0.39608150877057097 -0.16799278208162494
000020 c6 d5 8b eb 8e 61 9d bf ce 69 e4 64 b2 c0 c8 3f
       -0.028692467810250276 0.19338064123515014
000030 e1 12 d0 1a 89 94 b8 3f e7 cf 8b a2 47 a0 a2 3f
       0.09601647286042293 0.03637908801275085
000040 e2 c6 41 6f 9d fe d9 3f 5a dd c8 24 e8 7d da bf
       0.40616546502051964 -0.4139347418999556
000050 3a ef 5b d3 24 91 da 3f e4 0e 6b 48 be 8e be bf
       0.4151088775686166 -0.1193655897905575
000060 ef 93 58 90 2b 5c b0 bf 52 6f fb 3a 2d 7f b6 3f
       -0.06390640520164913 0.08787806215280838
000070 dd 31 53 73 30 7f a4 3f b9 99 ad c8 d6 cc be 3f
       0.040032877042537975 0.12031309508674938
000080 90 cd 73 bc e7 10 d6 3f bd 14 9e 9d 7a 43 df 3f
       0.34478181270170527 0.48849358932813997
000090 f4 65 6e 9e 2e f3 c8 3f ab 7b 22 11 11 7a c6 3f
       0.19492132888699099 0.1756001790681386
0000a0 37 30 0b 11 e3 34 b9 3f a7 4e e6 e2 b8 89 c9 3f
       0.09846324125391069 0.1995154483707797
0000b0 4d 33 51 0a e6 0e da 3f d0 fa ba df 45 77 d9 3f
       0.4071593380693244 0.39790484284087047
0000c0 56 cf ff 30 e8 da c1 bf 3b 13 85 28 96 28 b9 bf
       -0.13949301140348308 -0.09827555169347317
0000d0 17 11 1d 9a 3a 6f 90 3f a7 70 40 ac d1 55 e0 3f
       0.016049304634422414 0.5104759563723932
0000e0 63 ba 62 fb 2d e7 ce bf bc f4 4a fe ae 19 d5 3f
       -0.24143004202547322 0.32969260056763594
0000f0 8f fe d1 ee 44 0c d8 3f c3 fb 2a 61 8b 87 e2 3f
       0.37574885675710673 0.5790459535418154
000100 cf 35 5a 92 6e 09 b9 bf c1 bd 65 c5 52 4f b1 3f
       -0.09780016968780746 0.06761662787697899
000110 84 75 21 59 19 e5 c0 bf 86 0d 18 0b 90 87 d4 3f
       -0.13199154712758 0.3207740887011926
000120 ac 29 5d 39 85 05 e7 3f d3 f7 31 da 72 54 c1 bf
       0.719423877753163 -0.1353896680265608
000130 1a ad 3a 65 42 54 b8 3f 3e 97 39 98 26 74 cc bf
       0.09503569575706586 -0.22229463990077564
000140 bd a7 46 98 53 f1 b5 3f 12 cb 8e 25 f9 f7 bf bf
       0.08571360080409725 -0.12487752119959009
000150 19 b4 e5 23 cb 40 9f 3f d0 15 82 30 be 5b c9 bf
       0.030520605150219014 -0.19811227196275505
000160 46 48 0a 28 b4 b3 b8 bf 17 fc 52 cb 1a 4b d0 bf
       -0.09649206140082453 -0.25458402496218596
000170 cd c6 f5 37 58 b7 ae bf 98 2d da 7c 30 2b cd bf
       -0.05999255831819781 -0.22788053604413672
000180 40 c3 f3 d1 4e a2 cc bf 1b 71 4e 3f a0 5b d5 bf
       -0.22370324374744577 -0.3337174051500981
000190 23 1b 35 8f d3 0e 99 3f 3c 47 53 b3 27 19 d5 3f
       0.02447062074250107 0.32966034424054036
0001a0 e5 38 d1 7b a8 63 b2 bf fa b4 de f1 84 17 ca 3f
       -0.07183316252596546 0.2038427525525675

b0 f8 [1, 2]
000000 7b 14 ae 47 e1 7a 84 3f 7b 14 ae 47 e1 7a 84 3f
       0.01 0.01

W1 f8 [2, 2]
000000 f0 8d 23 4d 84 14 bf 3f 42 4d 00 46 1c 33 bc 3f
       0.12140681155465649 0.11015488347066074
000010 91 25 14 85 14 a9 c9 3f f5 03 2f cb 65 71 d7 3f
       0.20047241685851394 0.36629624216226314

b1 f8 [1, 2]
000000 7b 14 ae 47 e1 7a 84 3f 7b 14 ae 47 e1 7a 84 3f
       0.01 0.01

W2 f8 [2, 2]
000000 16 c3 6c e5 01 e6 f6 3f 2f fb 86 33 2d d6 c2 bf
       1.431154152098491 -0.14716115013103478
000010 c1 b8 75 7a 4d d8 e2 3f 80 4e cc cf 1b 95 e4 bf
       0.5889041320604279 -0.6432017382198438

b2 f8 [1, 2]
000000 7b 14 ae 47 e1 7a 84 3f 7b 14 ae 47 e1 7a 84 3f
       0.01 0.01

W3 f8 [2, 2]
000000 80 0c fd 56 e7 4a b7 bf ab f1 a2 f8 b3 54 f1 bf
       -0.09098668931715004 -1.0831794464457782
000010 01 3f 9f 1d af e0 e0 3f e3 43 dd 09 c1 85 d1 3f
       0.5274272516780628 0.2737886997538778

b3 f8 [1, 2]
000000 7b 14 ae 47 e1 7a 84 3f 7b 14 ae 47 e1 7a 84 3f
       0.01 0.01

W4 f8 [2, 2]
000000 55 97 8e 01 48 5e fb bf dd 16 55 42 01 54 f1 3f
       -1.7105178891010457 1.0830090132816885
000010 f8 e7 1d 06 a1 5e 68 bf ed 47 93 82 34 05 d2 3f
       -0.002974810123245849 0.281567695155103

b4 f8 [1, 2]
000000 7b 14 ae 47 e1 7a 84 3f 7b 14 ae 47 e1 7a 84 3f
       0.01 0.01

W5 f8 [2, 2]
000000 8e 42 27 09 10 04 e5 3f d2 2f 3a c8 67 49 d4 bf
       0.6567459276939915 -0.3169803099960947
000010 c3 78 1e e3 ea d2 df bf 57 c6 76 df 8d 88 f6 3f
       -0.4972483842810897 1.4083384255467502

b5 f8 [1, 2]
000000 7b 14 ae 47 e1 7a 84 3f 7b 14 ae 47 e1 7a 84 3f
       0.01 0.01

W6 f8 [2, 2]
000000 e9 a3 0b 13 c3 77 b5 3f a8 da 40 21 95 b7 eb bf
       0.0838586732385377 -0.8661599778632381
000010 71 b7 ee de 0c 83 e5 bf 2e 59 1f b3 22 55 fa bf
       -0.6722473482275132 -1.6457850453348999

b6 f8 [1, 2]
000000 a5 14 ae 47 e1 7a 84 3f 7b 14 ae 47 e1 7a 84 3f
       0.010000000000000073 0.01

W7 f8 [2, 2]
000000 bb 73 e5 f6 e0 18 c2 bf 87 7c 2d 71 ee 1c d2 bf
       -0.14138423972590694 -0.2830158334017558
000010 3b 90 54 01 34 93 e4 3f 88 0a 8a 7b 4c 64 f3 3f
       0.6429691339476514 1.2119870019675165

b7 f8 [1, 2]
000000 76 13 ae 47 e1 7a 84 3f aa 14 ae 47 e1 7a 84 3f
       0.009999999999999547 0.010000000000000082

W8 f8 [2, 2]
000000 f4 51 a0 6d e2 45 c9 3f 3c 7e 26 e9 65 b2 cc bf
       0.1974452052387644 -0.22419427761359312
000010 45 75 f7 c6 cf 82 f0 3f 16 9c 1a bc 91 1d f9 3f
       1.0319364330419643 1.5697190616426773

b8 f8 [1, 2]
000000 d6 11 ae 47 e1 7a 84 3f 4c 16 ae 47 e1 7a 84 3f
       0.009999999999998826 0.010000000000000807

W9 f8 [2, 2]
000000 f4 3e 8c fb 68 b7 f0 bf 5a ba bd 6e b8 e3 e3 bf
       -1.0447778535926178 -0.6215479052460282
000010 d4 53 43 0a d6 0b e7 3f e9 6b 17 08 1e 87 df bf
       0.7201948357056787 -0.49262190618691065

b9 f8 [1, 2]
000000 d6 16 ae 47 e1 7a 84 3f 7b 14 ae 47 e1 7a 84 3f
       0.010000000000001046 0.01

W10 f8 [2, 2]
000000 dc 1b 69 bc bd 6e f3 bf 6f 18 ce 05 e7 04 df 3f
       -1.2145364150799116 0.4846742207231562
000010 d6 d3 fc c1 6e 3b ae 3f 70 4a cd 22 d5 9f df bf
       0.05904718511593614 -0.49413040541290965

b10 f8 [1, 2]
000000 9a 12 ae 47 e1 7a 84 3f b2 14 ae 47 e1 7a 84 3f
       0.009999999999999166 0.010000000000000096

W11 f8 [2, 2]
000000 57 d5 5b e6 49 6d f7 bf 14 8d 54 74 e0 0c f0 bf
       -1.4641818045032176 -1.0031437439109299
000010 17 c0 1d 6a 19 5b c3 3f dc 13 92 6a c6 6c e6 bf
       0.1512176292558258 -0.7007782060105643

b11 f8 [1, 2]
000000 bd 15 ae 47 e1 7a 84 3f 7b 14 ae 47 e1 7a 84 3f
       0.010000000000000559 0.01

W12 f8 [2, 2]
000000 cb bf 6c 5e f8 91 f0 3f 0f 90 4e 5a cf 62 d1 bf
       1.0356372536152658 -0.2716558820632153
000010 f6 ff 9e 54 0f 2a 8f 3f 09 3f 30 77 44 0c f3 3f
       0.015216941614085027 1.1904949813651362

b12 f8 [1, 2]
000000 55 15 ae 47 e1 7a 84 3f 28 13 ae 47 e1 7a 84 3f
       0.010000000000000378 0.009999999999999412

W13 f8 [2, 2]
000000 28 cb 4d 13 7d 79 d7 3f 0b 86 5f ec 4e a4 d7 bf
       0.366790074206778 -0.3694035824138104
000010 bc 56 a5 91 50 ab e5 bf bb 4e 6d e7 c6 96 ee bf
       -0.677162441696701 -0.9559053916986707

b13 f8 [1, 2]
000000 78 16 ae 47 e1 7a 84 3f 5a 14 ae 47 e1 7a 84 3f
       0.010000000000000883 0.009999999999999943

W14 f8 [2, 2]
000000 3e 50 a5 28 35 0c 88 bf 0a 89 4d ef 6b 4d d7 3f
       -0.011742034247312568 0.364100440687381
000010 d8 ef 74 9b 57 50 c5 bf bc dd 87 54 d9 74 ff bf
       -0.1665143498483974 -1.966027574728158

b14 f8 [1, 2]
000000 c6 06 ae 47 e1 7a 84 3f ee 19 ae 47 e1 7a 84 3f
       0.009999999999993913 0.01000000000000242

W15 f8 [2, 2]
000000 85 f0 e6 d6 83 2f f2 bf 3d 83 16 a2 ec 32 f1 bf
       -1.1366003412831855 -1.0749327022133024
000010 be 22 8c c6 88 6b e0 3f b9 1c ad fb 13 2e cd bf
       0.5131267431143767 -0.22796869076612383

b15 f8 [1, 2]
000000 f5 1e ae 47 e1 7a 84 3f a8 15 ae 47 e1 7a 84 3f
       0.010000000000004653 0.010000000000000522

W16 f8 [2, 2]
000000 f5 2a a3 30 ec e2 d1 bf 22 1c fb 9d b2 e6 e0 bf
       -0.27947525739425255 -0.5281613431515135
000010 a2 db 55 25 3e 1b f3 3f fb fc c3 36 ce 34 f4 bf
       1.1941510637677557 -1.2628919734268595

b16 f8 [1, 2]
000000 2b 4d ae 47 e1 7a 84 3f e8 e2 ad 47 e1 7a 84 3f
       0.010000000000025175 0.009999999999977985

W17 f8 [2, 2]
000000 17 9a 79 0e 97 94 f4 bf 10 4d 1f 23 4f 16 e5 bf
       -1.2862768712453823 -0.6589732824308232
000010 0f cb c7 f5 e6 c4 f2 3f 4d f8 39 58 42 e4 e4 bf
       1.1730718231962702 -0.6528636668370013

b17 f8 [1, 2]
000000 fa ed ad 47 e1 7a 84 3f 5e 14 ae 47 e1 7a 84 3f
       0.009999999999982901 0.00999999999999995

W18 f8 [2, 2]
000000 f8 e8 1c 4d fb 60 e9 bf 1e 41 26 9e 67 cc ed 3f
       -0.7930885797607337 0.9312017525535656
000010 cd 0c 98 8f 41 96 ca 3f 3f 94 05 c6 68 2a dd 3f
       0.20771045218871223 0.45571345651689293

b18 f8 [1, 2]
000000 74 25 ae 47 e1 7a 84 3f ec fc ad 47 e1 7a 84 3f
       0.010000000000007538 0.009999999999989538

W19 f8 [2, 2]
000000 27 9c 1f df bc 91 f2 bf 32 c3 20 30 86 d3 df bf
       -1.1605805125962065 -0.4972854108810224
000010 00 2f 39 94 ca 1c fa 3f 81 a6 96 57 5f 30 f0 bf
       1.632029131887009 -1.0118096753525665

b19 f8 [1, 2]
000000 35 06 ae 47 e1 7a 84 3f 7b 14 ae 47 e1 7a 84 3f
       0.009999999999993662 0.01

W20 f8 [2, 2]
000000 48 08 d1 45 27 70 e6 bf 4e 18 ee 5b 10 4d e8 bf
       -0.7011906016925957 -0.7594072146901085
000010 20 30 8b da eb 5e d8 3f 4f bf c2 36 2e bb e1 bf
       0.3807935365882731 -0.5540991849465885

b20 f8 [1, 2]
000000 62 1f ae 47 e1 7a 84 3f 0d 1d ae 47 e1 7a 84 3f
       0.010000000000004842 0.010000000000003806

W21 f8 [2, 2]
000000 3e 63 25 91 93 4c 87 bf c0 ba e9 8c d0 86 f2 3f
       -0.0113765267057474 1.157913732949666
000010 f1 36 75 24 d1 6d c1 3f 3d 3a 91 06 72 ed f1 3f
       0.1361638477341596 1.1204700714621503

b21 f8 [1, 2]
000000 0c d2 a8 47 e1 7a 84 3f 6a 98 b1 47 e1 7a 84 3f
       0.009999999999402064 0.010000000000399651

W22 f8 [2, 2]
000000 02 20 92 bc 3e 0b da 3f c4 c8 a2 81 37 3d e0 bf
       0.4069363442908981 -0.5074727565718367
000010 b6 6a 4c 2d 09 d5 8e bf 5d 68 5b b5 5c 9f f1 3f
       -0.015054771132374394 1.10140677301981

b22 f8 [1, 2]
000000 be 4e a5 47 e1 7a 84 3f 33 0c b1 47 e1 7a 84 3f
       0.009999999999002692 0.010000000000337383

W23 f8 [2, 2]
000000 f2 55 11 e1 f4 40 f8 bf 98 b9 66 d1 be 3c fe 3f
       -1.5158585349757883 1.8898304157006347
000010 13 12 9f d2 81 8a ce 3f 91 1c ea ed fa 88 e4 bf
       0.23860190185782013 -0.6417212149398371

b23 f8 [1, 2]
000000 ef 20 ae 47 e1 7a 84 3f af a2 a9 47 e1 7a 84 3f
       0.01000000000000553 0.009999999999494717

W24 f8 [2, 2]
000000 26 37 d3 30 68 9e ee bf ae 07 ee ae cd a7 f3 bf
       -0.9568367913832148 -1.2284676392741676
000010 3c eb f4 12 94 fe ca bf 2e 30 e8 2f 68 cc f6 3f
       -0.21089411664601154 1.4249040480963333

b24 f8 [1, 2]
000000 bd 17 ad 47 e1 7a 84 3f 04 ed aa 47 e1 7a 84 3f
       0.00999999999988776 0.009999999999641414

W25 f8 [2, 2]
000000 91 0c 75 72 4c 19 e9 3f 1a d7 f6 72 ae 5d d6 3f
       0.7843382106297146 0.34946786143278674
000010 44 ac 0f 7e 28 df ee bf 69 8f 65 5b 96 db f1 3f
       -0.9647409879811524 1.1161101885017735

b25 f8 [1, 2]
000000 0c 16 ae 47 e1 7a 84 3f 35 5b ab 47 e1 7a 84 3f
       0.010000000000000696 0.009999999999690349

W26 f8 [2, 2]
000000 6e 41 dc 8e b5 2a d2 bf 29 4c c8 fe 0e ac e3 3f
       -0.2838567633744081 0.6147532440394389
000010 68 10 fd f9 36 ec fd 3f 29 db fe 45 1e 3f dc 3f
       1.8701696171929374 0.44135243258954177

b26 f8 [1, 2]
000000 29 98 ac 47 e1 7a 84 3f ac 77 ae 47 e1 7a 84 3f
       0.009999999999831104 0.01000000000004405

W27 f8 [2, 2]
000000 d5 0f 98 3d 04 c3 e7 bf 93 8b 64 f9 6d 9b eb bf
       -0.7425557330138824 -0.862723338217949
000010 e8 07 98 6a d4 fd e5 bf 6c 18 da fa aa 10 97 bf
       -0.6872350770865951 -0.022524520455157335

b27 f8 [1, 2]
000000 57 80 ad 47 e1 7a 84 3f e4 37 b0 47 e1 7a 84 3f
       0.009999999999934213 0.0100000000002431

W28 f8 [2, 2]
000000 30 df 72 d8 b4 7b b7 bf e6 1f d9 41 2e a4 ef bf
       -0.09173136028664142 -0.9887915884110015
000010 ff 05 20 f3 93 55 f9 3f 5c b9 81 9a 9e db dc 3f
       1.5833930489610564 0.4509045132498579

b28 f8 [1, 2]
000000 fb 14 24 48 e1 7a 84 3f 79 98 d8 47 e1 7a 84 3f
       0.010000000013415269 0.010000000004833464

W29 f8 [2, 2]
000000 89 bb 06 ed ef 5b ec 3f 4c 57 bb a8 7c 51 c7 bf
       0.8862228040141967 -0.18217428435189686
000010 a3 13 30 20 fd f7 d4 3f a1 25 23 26 ff 64 f4 bf
       0.3276360334714871 -1.274657391523171

b29 f8 [1, 2]
000000 c1 cd 2e 48 e1 7a 84 3f ea f8 ae 47 e1 7a 84 3f
       0.010000000014634193 0.010000000000101445

W30 f8 [2, 2]
000000 d2 34 de 5c be 55 e5 bf 5b 5e c0 b4 47 b3 d4 3f
       -0.6667167486026762 0.32344238902576244
000010 bf 77 96 a3 e2 5c e0 3f 7c fb 68 5c b7 73 ce 3f
       0.5113385386537103 0.23790637981616303

b30 f8 [1, 2]
000000 db 5a a8 47 e1 7a 84 3f 88 78 22 49 e1 7a 84 3f
       0.009999999999349132 0.010000000042335935

W31 f8 [2, 2]
000000 6c 42 0c 75 d8 02 f3 3f 74 da 19 9d fb e3 f2 bf
       1.1881947109397073 -1.1806598793752103
000010 23 68 82 b5 ef 15 e7 bf a2 57 39 3f 60 a2 e8 3f
       -0.7214277787309168 0.7698212847560522

b31 f8 [1, 2]
000000 a6 06 9a 47 e1 7a 84 3f ad 44 6e 49 e1 7a 84 3f
       0.00999999999772012 0.010000000050953107

W32 f8 [2, 2]
000000 f2 e2 f8 a8 be 48 eb 3f 54 7f 24 65 18 c1 c4 bf
       0.8526299762953313 -0.16214280069925258
000010 18 20 09 3c cf e1 bb bf fb cc 88 c6 c5 ba f1 bf
       -0.1089143296786691 -1.1080987696885234

b32 f8 [1, 2]
000000 ed bb b0 3e e1 7a 84 3f c1 d2 09 47 e1 7a 84 3f
       0.00999999973836726 0.00999999998132617

W33 f8 [2, 2]
000000 ba 1c 12 c4 bc b8 e0 bf 39 69 07 c6 b4 6b c5 bf
       -0.5225509480959751 -0.1673494307459096
000010 aa 0d 1f e9 ca c9 c7 bf 0a 12 0e 55 43 18 f3 3f
       -0.18584572203517996 1.1934235880336268

b33 f8 [1, 2]
000000 fe af 54 67 e1 7a 84 3f 9f f8 b4 18 e1 7a 84 3f
       0.01000000092115982 0.009999998632903405

W34 f8 [2, 2]
000000 22 f5 0a 95 3d 18 ff 3f 9c 23 9f d1 79 bc d6 bf
       1.9434181043610086 -0.35525365324843405
000010 fc 52 7c cb 06 b3 e4 bf a0 c9 ad af b6 2a f4 3f
       -0.6468538259819918 1.2604281294303306

b34 f8 [1, 2]
000000 12 b6 c5 51 e1 7a 84 3f 08 03 e2 28 e1 7a 84 3f
       0.010000000293724862 0.009999999103685223

W35 f8 [2, 2]
000000 d1 de 5d de 38 10 d3 3f cb ee eb 23 d6 be f3 bf
       0.2978651210355397 -1.2340909388721453
000010 71 bf 81 d7 39 b0 e1 bf 06 91 ff 4b f5 22 f3 bf
       -0.5527619561307643 -1.196034714573274

b35 f8 [1, 2]
000000 ed e5 3b 76 e1 7a 84 3f f9 98 05 4b e1 7a 84 3f
       0.010000001354899058 0.010000000097261085

W36 f8 [2, 2]
000000 fd 5f 9d eb 58 c4 d2 bf 31 10 6d b6 5b b5 e1 bf
       -0.2932340908932927 -0.5533884585388532
000010 a5 c3 44 2c c6 10 fc bf c4 7a 71 4e ac 7c d2 bf
       -1.754095242428073 -0.2888594404266025

b36 f8 [1, 2]
000000 b5 5b d5 8c e0 7a 84 3f ff 21 7a 59 e1 7a 84 3f
       0.009999994562049122 0.010000000517963235

W37 f8 [2, 2]
000000 57 42 8e 10 45 4a d3 3f 38 fb a7 85 b5 3e ed 3f
       0.30140806786315494 0.9139049158546646
000010 ac 6d 48 dc 5e 24 c1 3f ae 39 bd 44 40 10 c1 bf
       0.13392244106294748 -0.13330844265369762

b37 f8 [1, 2]
000000 77 1a 5b 14 e1 7a 84 3f f4 ec 3d 93 e0 7a 84 3f
       0.009999998506271297 0.009999994748560039

W38 f8 [2, 2]
000000 f3 96 f5 53 aa 4b f3 bf e2 f4 23 0b bf 6c e8 3f
       -1.2059729842816835 0.7632746903979319
000010 ac 7c 85 e8 d2 28 d7 bf e0 d3 73 bb 44 34 05 40
       -0.3618666907040715 2.6505217213366308

b38 f8 [1, 2]
000000 b2 37 1f 47 e1 7a 84 3f 59 dd e2 05 e1 7a 84 3f
       0.009999999983758421 0.009999998085148109

W39 f8 [2, 2]
000000 11 a1 27 ed 12 ef e1 3f 2c d1 72 f3 06 05 f1 3f
       0.5604338294915882 1.0637273320872493
000010 58 f3 ac 31 70 e2 e0 3f 6e 81 57 64 36 0f e4 bf
       0.527641388914712 -0.6268569907952448

b39 f8 [1, 2]
000000 2b 6a a4 d8 e0 7a 84 3f 11 b6 89 4f e1 7a 84 3f
       0.009999996768376004 0.01000000022869599

W40 f8 [2, 2]
000000 11 31 e1 92 c4 43 ca 3f 2e 6f 01 d5 31 ca f9 bf
       0.20519311115129615 -1.6118639297992092
000010 0d 91 2a 0b b2 cd f7 bf ea 7d 7a 8b 62 60 d9 3f
       -1.4877186237509392 0.3965078699202126

b40 f8 [1, 2]
000000 bb 99 3c 4a df 7a 84 3f 0d d7 53 49 e1 7a 84 3f
       0.009999985173249173 0.010000000047948565

W41 f8 [2, 2]
000000 e9 84 23 fa f6 6d f6 bf 6f 10 99 45 47 dd c4 bf
       -1.4018468638462827 -0.16300288103423408
000010 ab 1b 5d f9 09 0e e1 3f 35 93 d6 9e 0f 58 aa 3f
       0.5329637403855164 0.05145310224478409

b41 f8 [1, 2]
000000 4f 04 be 71 e1 7a 84 3f 0a e9 fc a6 eb 7a 84 3f
       0.010000001224172687 0.010000077279631831

W42 f8 [2, 2]
000000 62 b6 18 21 fe fc e1 3f 52 bc 45 c5 2b 95 00 c0
       0.5621328970352801 -2.0728373920351624
000010 57 fd 4a 56 eb bd ce 3f 56 ad 2c 0f 09 94 f6 bf
       0.24017087663194545 -1.4111414520983394

b42 f8 [1, 2]
000000 5f d4 e7 c9 e6 7a 84 3f 9a 08 3d 1f db 7a 84 3f
       0.01000004104296631 0.009999954119511312

W43 f8 [2, 2]
000000 d8 d9 c9 05 29 cd ca bf 6f 47 59 79 9b a5 b9 bf
       -0.20938599379196776 -0.10018321716895938
000010 51 17 fe 1e eb f7 c1 3f da da 42 8b 34 98 d3 3f
       0.14037837041194703 0.3061648712131678

b43 f8 [1, 2]
000000 1a d6 7c a5 cc 7a 84 3f 48 cc 12 53 d7 7a 84 3f
       0.009999846267969171 0.009999925825786474

W44 f8 [2, 2]
000000 3d b3 ad 74 2f 87 d6 bf fc 29 31 f3 97 45 e6 3f
       -0.3520010604323039 0.6959953069538751
000010 cc 42 9c 94 e5 1f db bf 61 25 ec 6c cb ee d4 3f
       -0.42382182610257924 0.32707486760098986

b44 f8 [1, 2]
000000 f1 7f 5e 3f e2 7a 84 3f b0 bf 9f 26 c5 7a 84 3f
       0.010000007208702729 0.00999979042168761

W45 f8 [2, 2]
000000 8f d5 08 62 4b ba 8c 3f 58 96 5a 29 f4 a5 eb bf
       0.014027203492427613 -0.8640080268566619
000010 1d 43 f8 bd 7b ed de 3f e7 37 72 d4 fa d8 f3 3f
       0.4832448344396186 1.2404735850027409

b45 f8 [1, 2]
000000 68 97 43 00 ae 7a 84 3f da cc d1 5d df 7a 84 3f
       0.009999617941911246 0.009999985743183993

W46 f8 [2, 2]
000000 47 9c b3 b2 f1 bb 04 40 18 a0 ba 89 5b b2 db bf
       2.5917695962012064 -0.4327610821733301
000010 ab a9 a7 33 90 2a c1 3f 7d c5 1c 13 bf 4f e4 bf
       0.13411142847264776 -0.6347346661843144

b46 f8 [1, 2]
000000 19 b6 62 fc cd 7a 84 3f dc 99 11 1d e0 7a 84 3f
       0.009999856247612947 0.009999991309268923

W47 f8 [2, 2]
000000 a3 3b 04 86 0f 1f cb 3f 8b 20 3f 63 c1 e1 fb bf
       0.21188539546753046 -1.7426160694904265
000010 7a a5 97 fe 0f f3 f1 3f c5 c4 d6 ed 6d e1 f0 3f
       1.1218414254202274 1.055036477144584

b47 f8 [1, 2]
000000 2e 52 38 30 7e 7a 84 3f 76 fe 5f eb df 7a 84 3f
       0.009999261709745157 0.00999998986298965

W48 f8 [2, 2]
000000 57 ca ca 2c 89 a1 a3 3f f6 b6 5a b3 ed c6 ba 3f
       0.03834179565219092 0.10459790829437651
000010 75 18 19 ad 02 d3 a8 bf 8f a8 33 f7 c3 fc ec bf
       -0.04848488200200133 -0.905855162445066

b48 f8 [1, 2]
000000 ee 67 fd c5 a8 6d 84 3f d4 14 ac 6b 27 7c 84 3f
       0.00997478346078037 0.010002429936785275

W49 f8 [2, 2]
000000 94 e7 0a d7 c2 9e eb 3f 77 96 aa d7 59 00 f2 bf
       0.8631300163317399 -1.1250856804339529
000010 47 71 da ca bb 4f f3 3f 7f 64 b5 ee 30 46 d2 3f
       1.2069662021595648 0.28553412734397193

b49 f8 [1, 2]
000000 26 d8 91 9a 78 79 84 3f f3 e9 2d 7a 24 85 84 3f
       0.009997312752812414 0.01001957414495267

W50 f8 [2, 2]
000000 41 f1 60 e6 fe ee e0 bf 77 c4 32 f4 7e 7e c6 bf
       -0.5291742801269167 -0.17573534892793294
000010 ec 36 bb 24 4a 31 d7 bf f3 98 9c e2 0c f5 f4 3f
       -0.3623833998397987 1.3098267414111973

b50 f8 [1, 2]
000000 5b 89 bd f7 ee 7a 84 3f e0 c8 9b 42 75 82 84 3f
       0.010000101981579126 0.010014453978758941

W51 f8 [2, 2]
000000 0c c7 79 5f bb 11 f1 bf f2 06 1a ec 2c 66 dd bf
       -1.0668290833968426 -0.4593612962417942
000010 c4 87 ca 47 cb be dd 3f 43 81 cf ee fa 87 f4 bf
       0.4647701455197615 -1.2831982925927867

b51 f8 [1, 2]
000000 5f 10 9f 76 d1 78 84 3f 96 75 11 b7 6e 74 84 3f
       0.009996067459617728 0.00998770233325778

W52 f8 [2, 2]
000000 26 43 7b 2d 49 bd e6 3f d0 be fd c8 40 42 c4 bf
       0.7106061828909318 -0.15827188314459884
000010 da 96 25 80 29 6a e1 bf 79 2e 6d aa 9c da e9 3f
       -0.5442092421405633 0.8079360321657553

b52 f8 [1, 2]
000000 b7 e5 e8 f5 90 75 84 3f b4 93 52 ed 98 6f 84 3f
       0.009989864830560842 0.009978480093488652

W53 f8 [2, 2]
000000 53 58 52 c2 9e d7 fa 3f a8 9e 6d f2 92 b4 e0 3f
       1.6776416388215878 0.5220427260328124
000010 c4 14 f1 34 92 d5 f9 3f e3 39 ef 0d 36 ab eb 3f
       1.6146413867984828 0.864649798599029

b53 f8 [1, 2]
000000 86 71 e1 1d f0 7c 84 3f 8a 7b 3c e0 70 6a 84 3f
       0.010003925239453048 0.009968644946239075

W54 f8 [2, 2]
000000 9d 46 48 18 b3 5c d7 bf 65 8f 9a d5 cc b9 c7 bf
       -0.3650329339153389 -0.1853576701151908
000010 7b 60 ff fa 47 95 bc 3f 37 62 f3 f7 96 6e f8 3f
       0.11165284994001638 1.526999443585863

b54 f8 [1, 2]
000000 a0 df 51 5b b5 7a 84 3f 29 04 f3 1f 80 70 84 3f
       0.009999672746047683 0.0099802026510379

W55 f8 [2, 2]
000000 0f 77 43 ec 13 b1 ee 3f 5f 2a a4 9b 2d 97 c3 3f
       0.9591159452936341 0.15305109119101964
000010 22 46 fa af a3 8f e0 bf b5 d8 b3 46 13 1b e1 bf
       -0.5175341069281709 -0.5345550900372219

b55 f8 [1, 2]
000000 b2 3f f6 6b eb 62 84 3f 18 30 57 0f d2 a4 84 3f
       0.00995429919456101 0.010079995244176174

W56 f8 [2, 2]
000000 9c 97 cd 4d d2 94 dc bf 1a cd 50 87 df 64 e1 3f
       -0.44658334348638973 0.5435636179812804
000010 39 9c 12 e6 63 0c f0 3f 10 20 b7 02 ee 7a e9 bf
       1.0030249583449076 -0.7962560704263542

b56 f8 [1, 2]
000000 47 1c 78 bb 18 e0 8b 3f fd 1b 57 8a bb de 73 3f
       0.0136110241137556 0.0048510862156438935

W57 f8 [2, 2]
000000 5a 28 ca 38 26 ac f5 3f c6 3a 23 3a 6c e4 ba 3f
       1.3545286386820607 0.1050479547441042
000010 32 95 ca 54 2d ff e1 bf 8a 9b 91 df e3 97 d3 bf
       -0.5623995452957955 -0.30614563782585746

b57 f8 [1, 2]
000000 49 81 e2 32 20 9f 87 3f be 6d b2 df bf f9 97 3f
       0.011533977082138451 0.02341365626180702

W58 f8 [2, 2]
000000 cf 6e 27 99 d5 e8 d5 3f ad 63 23 fe dc cf e1 3f
       0.3423360820431584 0.5566239322316641
000010 28 97 4d de 0e 07 f1 3f 03 7f b6 9f 5b e9 f1 bf
       1.0642231639589657 -1.1194721449646188

b58 f8 [1, 2]
000000 43 74 63 70 bc 8b 93 3f 33 b7 b5 ec d5 f8 7c 3f
       0.019087738380097596 0.0070732456618836535

W59 f8 [2, 2]
000000 82 2e 34 51 a9 d3 eb bf 6d 7f ca 07 72 e9 dc 3f
       -0.869587572671165 0.45174837838020815
000010 59 8d 16 7b 68 bb ef 3f 75 3d 4f 8a 56 cc d4 bf
       0.9916269687713949 -0.3249718046835917

b59 f8 [1, 2]
000000 d8 4c 3a 66 13 10 84 3f e9 c5 f7 89 9d bd 9d 3f
       0.00979628711437501 0.02904363779629718

W60 f8 [2, 2]
000000 15 b0 6a c7 bb 4b d4 bf fb 75 34 5c 84 b8 d1 bf
       -0.31712240671436237 -0.27688702587496977
000010 56 bf 2c 1c 54 48 f2 bf 8f c5 72 33 72 23 f6 3f
       -1.142658338601867 1.3836538324070238

b60 f8 [1, 2]
000000 92 2a 1c 89 4c c0 83 3f f1 9a 95 3f a1 8b 97 3f
       0.009644124922052275 0.022993583207973015

W61 f8 [2, 2]
000000 1c f6 a9 c5 b9 1a d8 bf b0 b3 c4 cc ed c1 c4 3f
       -0.37663120558849683 0.16216824053244983
000010 47 35 8b 9b 00 2d c1 3f 62 1e 6e 6e 9a 67 a6 bf
       0.13418586344634262 -0.043759180050128035

b61 f8 [1, 2]
000000 2e ea 91 7d 8c d7 c1 3f d9 e0 ff bf 86 42 b9 3f
       0.13939052707049043 0.09867136180389781

W62 f8 [2, 2]
000000 1c b8 ca 4f c3 e4 fb 3f 17 d7 43 4c cf 0d 05 40
       1.743350326239585 2.631743045635527
000010 55 ea ac df 18 d2 f1 bf 92 1f b8 b0 28 ed e3 bf
       -1.11379325268958 -0.6227000667140479

b62 f8 [1, 2]
000000 1c e9 81 54 7a 2d c4 bf 75 76 54 87 5a b2 c5 3f
       -0.1576378739008043 0.16950542076022015

W63 f8 [2, 2]
000000 62 b6 28 c3 3c 84 ed bf 64 95 bc f8 4f 32 d6 3f
       -0.9223922549915182 0.3468208245343105
000010 70 3e a3 71 06 f8 ee 3f e2 5e 1b 57 ea f1 f5 3f
       0.9677765101896068 1.3715613749135902

b63 f8 [1, 2]
000000 65 72 06 89 6e be d0 3f ce 23 79 9f 9c 3a a8 bf
       0.2616230333458474 -0.04732217261022918

W64 f8 [2, 2]
000000 a1 f0 de 30 44 f8 f6 3f 84 26 ae ff 4a ce 84 bf
       1.4356119069116533 -0.010159097602598928
000010 0d cd c7 92 2d 22 c8 bf 79 dc cf 28 1c 75 d2 3f
       -0.1885430304242636 0.28839782701056255

b64 f8 [1, 2]
000000 55 24 60 dd 31 9d c7 3f ee 06 5b 4d a4 e4 a5 bf
       0.18448470410683862 -0.04276002353937068

W65 f8 [2, 1]
000000 06 c5 fa 30 46 f1 f6 3f 4e c7 66 27 08 7a da bf
       1.433904830290261 -0.41369823310661935

b65 f8 [1, 1]
000000 77 e7 10 41 9b cc c0 3f
       0.13124409367611253
