best_model_weigths_e10.npz (npz, 27250 bytes, 132 tensors)

W0 f8 [27, 2]
00000000: d5ea 77b2 36fd bb3f af10 c1a8 08ba d63f
00000010: e935 d1cc 69f4 d0bf cb6d 33c3 d28a aebf
00000020: 8a02 cd2b 05c7 d33f c90e a64e 9dde cfbf
00000030: 0d11 3b74 4349 ba3f 51b2 5a9e 74d5 9c3f
00000040: 8452 c610 699d d4bf 608a 6483 0320 993f
00000050: cac6 22d3 dcfa e23f eb50 993b 939a c73f
00000060: b813 fc55 285f b33f f1bd ab65 d5ad d53f
00000070: 25ce 3e0e 0a4a c5bf 7f24 830c 0e5d dabf
00000080: 6588 fedd 0c99 c2bf 2fc2 80e5 c6ef b73f
00000090: 5e64 f3ff 79c4 88bf 19ed 55f1 8934 c1bf
000000a0: c40a 6fad 674a df3f 43c6 463c 22a2 cebf
000000b0: f619 e1ff d5f7 da3f ae43 8eba 4ab2 cabf
000000c0: a361 5f6f fa76 e2bf 2e22 9039 4262 c03f
000000d0: 7dcf af31 96bc d7bf fced c566 6860 c8bf
000000e0: c18b ab02 c1e6 c53f b90e 757e 4982 b6bf
000000f0: bb91 42c0 9c41 b5bf e024 2247 4278 c5bf
00000100: 4b7c 0626 3a20 c43f 41de 8635 b08d c93f
00000110: 4498 5cb5 e717 b6bf 4e60 3990 0fc5 d1bf
00000120: 483e 6465 5c69 d33f a5c6 cc98 22b6 ba3f
00000130: fc44 f802 5d28 dc3f 79bf 5b88 0de0 d73f
00000140: 27a9 a05e 2b07 cd3f bbea fafb ae9f 973f
00000150: 9fe6 ae18 f005 bfbf a323 2f8e e6e8 de3f
00000160: 9f13 eff9 3466 d9bf 213e 6b7a f0ff d03f
00000170: bde7 b0de ebea d13f 65ca c1f3 cce7 d8bf
00000180: 03d6 ab6a 8251 a3bf aa68 8184 75f5 bc3f
00000190: 55af a288 d08c c53f 68aa cdc7 553c cc3f
000001a0: 7b14 20c9 34f0 ac3f 9eb5 25db 508f c43f
0.1093324838365491 0.35510460357569235 -0.26491780282671457 -0.05965288765738882 0.30902222897933795 -0.24898115482584718 0.10268041217483788 0.028158018269709043
-0.3221075691047093 0.02453618516404743 0.5931228755709637 0.18440475854971025 0.07567073916659595 0.3387349598769723 -0.16632199950764562 -0.4119296190443222
-0.14529572333873655 0.09350245574092562 -0.012093499301430718 -0.13441585811583748 0.4889163201989215 -0.23932292884050996 0.4213767050572693 -0.20856603726545359
-0.5770237136121533 0.12799861727423106 -0.37088541843626627 -0.19044213312359648 0.17110455160499607 -0.08792552316031789 -0.08303241437767543 -0.1677325103121694
0.15723349434571995 0.19963648427595795 -0.08630226304794159 -0.27765263637912063 0.30330572034379033 0.10434166174379784 0.43996358194370067 0.37305010143517553
0.2267812931107269 0.023070081834456895 -0.12118435480706545 0.4829651249424904 -0.39686321647269013 0.2656212993142351 0.2799634623257779 -0.38914798550027846
-0.03773124267710772 0.11312040791509284 0.16835982009558373 0.22059128051781163 0.05652012782233214 0.16062365246345406

b0 f8 [1, 2]
00000000: 7b14 ae47 e17a 843f 7b14 ae47 e17a 843f
0.01 0.01

W1 f8 [2, 2]
00000000: e2a2 d92b 3319 dabf 5825 4ae5 bac1 e53f
00000010: c384 925f 2f98 d7bf 47f7 f288 10d5 d6bf
-0.407788079092411 0.6798986891091472 -0.3686636384318939 -0.35675443052229067

b1 f8 [1, 2]
00000000: 7b14 ae47 e17a 843f 7b14 ae47 e17a 843f
0.01 0.01

W2 f8 [2, 2]
00000000: 3829 213d 9562 eb3f 9d54 43e7 000b e0bf
00000010: a955 57da f720 f5bf 2031 acd5 56c9 d13f
0.8557840532242045 -0.5013432041984235 -1.3205488709403232 0.2779137694021916

b2 f8 [1, 2]
00000000: 7b14 ae47 e17a 843f 7b14 ae47 e17a 843f
0.01 0.01

W3 f8 [2, 2]
00000000: 242a 2ab4 549d 00c0 c04c aa54 e85e e3bf
00000010: eb9c d29e 09ab c13f dd15 8f7f da13 02c0
-2.0768217158668154 -0.6053353932969898 0.1380321527005671 -2.2596940961400223

b3 f8 [1, 2]
00000000: 7b14 ae47 e17a 843f 7b14 ae47 e17a 843f
0.01 0.01

W4 f8 [2, 2]
00000000: 35f3 cb3b 59fd 743f e904 d5e7 6d86 dabf
00000010: 6671 c00c 6e7c c0bf d5b9 338c a1bf e93f
0.00512442452304356 -0.41445491447309607 -0.12879729864733774 0.8046424616166471

b4 f8 [1, 2]
00000000: 7b14 ae47 e17a 843f 7b14 ae47 e17a 843f
0.01 0.01

W5 f8 [2, 2]
00000000: 2553 cbfd d642 e8bf 646f 7e9d 10bc d6bf
00000010: 5341 133a 2934 ed3f 6448 b637 4ea8 84bf
-0.7581591565054607 -0.3552285707498781 0.9126173147470048 -0.010086642337032888

b5 f8 [1, 2]
00000000: 7b14 ae47 e17a 843f 7b14 ae47 e17a 843f
0.01 0.01

W6 f8 [2, 2]
00000000: daed 8e9a 8d27 babf 6a03 e976 865c debf
00000010: 9962 cf2c a09e d23f 1c9e 34bd 33a3 e8bf
-0.10216603301426322 -0.474397293208361 0.2909317433928123 -0.7699221320553451

b6 f8 [1, 2]
00000000: 7b14 ae47 e17a 843f 7b14 ae47 e17a 843f
0.01 0.01

W7 f8 [2, 2]
00000000: 180c a25f 986e e63f 1017 a173 c1c6 f73f
00000010: a3b7 7480 5780 c23f e18f 2231 944f f23f
0.7010003917533849 1.48602433364562 0.14454168102514328 1.1444284362159964

b7 f8 [1, 2]
00000000: 7b14 ae47 e17a 843f 7b14 ae47 e17a 843f
0.01 0.01

W8 f8 [2, 2]
00000000: 6b72 8e7d 112d dd3f 6526 abee bd76 f2bf
00000010: 9d20 d65e 520b fa3f 1ba1 79a6 8e2d e4bf
0.4558757520806355 -1.1539897273054518 1.627764101462197 -0.6305611850230294

b8 f8 [1, 2]
00000000: 7b14 ae47 e17a 843f 7b14 ae47 e17a 843f
0.01 0.01

W9 f8 [2, 2]
00000000: db02 67ab 2fbf f0bf 9f53 c893 fd3c 8b3f
00000010: 20f6 1dca 7162 fe3f 4b31 27c0 18a6 0340
-1.0466763205915217 0.013299923965897352 1.8990342993923903 2.4561018955193155

b9 f8 [1, 2]
00000000: 7b14 ae47 e17a 843f 7b14 ae47 e17a 843f
0.01 0.01

W10 f8 [2, 2]
00000000: 21fe c2d6 c942 f63f 16b3 6e7a 892d ff3f
00000010: 0b2a fe19 eeb7 d9bf 28db 2694 4fb5 d93f
1.3913057698372386 1.9486174376026546 -0.4018512014232846 0.40169133632609766

b10 f8 [1, 2]
00000000: 7b14 ae47 e17a 843f 7b14 ae47 e17a 843f
0.01 0.01

W11 f8 [2, 2]
00000000: 2e47 75d2 720e f33f 2d85 c535 e617 ea3f
00000010: b3a3 cbd2 dc1b f83f 0509 7bbb e6ab ee3f
1.1910274716396532 0.8154173898912284 1.506802390498916 0.9584840451937288

b11 f8 [1, 2]
00000000: 7b14 ae47 e17a 843f 7b14 ae47 e17a 843f
0.01 0.01

W12 f8 [2, 2]
00000000: 4b50 672c aacd e6bf aa79 45bc 2dc2 b8bf
00000010: b29f 028a 1895 ddbf 50f6 4280 b737 cfbf
-0.7126055590874868 -0.09671293112248827 -0.4622250888592091 -0.24388784182331102

b12 f8 [1, 2]
00000000: 7b14 ae47 e17a 843f 7b14 ae47 e17a 843f
0.01 0.01

W13 f8 [2, 2]
00000000: 17da c2c1 8750 dbbf f23c 017f 0994 ec3f
00000010: cae7 d226 5c8f 843f e083 bf52 7aa7 cd3f
-0.42679017946230274 0.8930709343493659 0.010039062437829833 0.23167351761278976

b13 f8 [1, 2]
00000000: 7b14 ae47 e17a 843f 7b14 ae47 e17a 843f
0.01 0.01

W14 f8 [2, 2]
00000000: 393d 69e8 afd6 f13f 461d e349 a52a d6bf
00000010: e2d9 b3a1 d5f1 0740 4051 3af3 e1c2 ebbf
1.1149138525541515 -0.3463528844408369 2.9930832512866212 -0.8675393820326818

b14 f8 [1, 2]
00000000: 7b14 ae47 e17a 843f 7b14 ae47 e17a 843f
0.01 0.01

W15 f8 [2, 2]
00000000: 7536 6d42 d039 e9bf 6a39 6362 3693 efbf
00000010: 610f 3cdb 5f1e e6bf 6084 8307 15e2 d1bf
-0.7883073136706132 -0.9867202684052192 -0.6912078172613115 -0.27942395910037554

b15 f8 [1, 2]
00000000: 7b14 ae47 e17a 843f 7b14 ae47 e17a 843f
0.01 0.01

W16 f8 [2, 2]
00000000: de40 2507 5852 0940 ce29 5369 8351 f53f
00000010: f268 d966 880d e03f 2dac 38b1 fdd6 e53f
3.165206962417968 1.3324007143261158 0.5016519554876864 0.682494016776564

b16 f8 [1, 2]
00000000: 7b14 ae47 e17a 843f 7b14 ae47 e17a 843f
0.01 0.01

W17 f8 [2, 2]
00000000: ff50 d250 f709 b9bf 481e 413c ced6 0140
00000010: 4576 b4a7 5000 0dc0 1983 2cb1 8e39 cfbf
-0.09780832026655516 2.2298855502483867 -3.62515383738972 -0.2439440121752561

b17 f8 [1, 2]
00000000: 7b14 ae47 e17a 843f 7b14 ae47 e17a 843f
0.01 0.01

W18 f8 [2, 2]
00000000: 84de e356 06ed f43f 933f be0a 7703 f83f
00000010: 3c29 47b1 214b d53f fd0b afdd 86cf d8bf
1.3078673738617974 1.500845949140033 0.33271066963483853 -0.38766643189245525

b18 f8 [1, 2]
00000000: 7b14 ae47 e17a 843f 7b14 ae47 e17a 843f
0.01 0.01

W19 f8 [2, 2]
00000000: 5cc9 ea11 adf7 e03f a925 ed93 7657 f83f
00000010: 95a3 7f3b 0aaf e1bf 3668 cc3d 8547 debf
0.5302338933891337 1.5213533190129545 -0.5526171838838417 -0.47311526331907616

b19 f8 [1, 2]
00000000: 7b14 ae47 e17a 843f 7b14 ae47 e17a 843f
0.01 0.01

W20 f8 [2, 2]
00000000: e783 4381 9dd2 d23f 35fa 2b8a f0d9 fe3f
00000010: b34d 10b9 a3f3 f3bf 5bac 7d6f 33a1 d4bf
0.2941049349156501 1.9282079121909537 -1.2469823102045268 -0.32233892333778663

b20 f8 [1, 2]
00000000: 7b14 ae47 e17a 843f 7b14 ae47 e17a 843f
0.01 0.01

W21 f8 [2, 2]
00000000: 01e4 c3ed 1ca9 dabf dfc1 5a6e ca1a eabf
00000010: 3f44 b073 b17f ca3f 9ff9 7efa 64e1 d63f
-0.416571838562561 -0.8157703547822698 0.20702188633780058 0.35750698530673647

b21 f8 [1, 2]
00000000: 7b14 ae47 e17a 843f 7b14 ae47 e17a 843f
0.01 0.01

W22 f8 [2, 2]
00000000: dfdf bbae 61ed b53f e92f 5290 9de9 c4bf
00000010: 93df 7419 74e2 00c0 9faa 233f 4635 f03f
0.08565340534175857 -0.1633793787663074 -2.110573004607383 1.013006445539453

b22 f8 [1, 2]
00000000: 7b14 ae47 e17a 843f 7b14 ae47 e17a 843f
0.01 0.01

W23 f8 [2, 2]
00000000: b9b4 115f 11e5 c33f 8954 5055 2aa7 d6bf
00000010: cb1f f78a d5fa debf 55a0 a108 b386 debf
0.1554280962185766 -0.35395296412873073 -0.4840597016413965 -0.4769713959017328

b23 f8 [1, 2]
00000000: 7b14 ae47 e17a 843f 7b14 ae47 e17a 843f
0.01 0.01

W24 f8 [2, 2]
00000000: 6a5b 60d3 35c2 fdbf 5e77 a914 0513 f3bf
00000010: 7f05 acd7 7e26 e5bf e9d1 e353 1520 f33f
-1.8599146134272027 -1.192143517218447 -0.6609491550772616 1.195332839674956

b24 f8 [1, 2]
00000000: a712 ae47 e17a 843f 6915 ae47 e17a 843f
0.009999999999999188 0.010000000000000413

W25 f8 [2, 2]
00000000: 7761 6758 5ffd dd3f e64e 983a b8e5 e2bf
00000010: 7f07 9fa7 d60c d9bf ddde 2bd5 d2ed c8bf
0.4685896266287481 -0.590541948741216 -0.39140859956034285 -0.19475779923208494

b25 f8 [1, 2]
00000000: 9411 ae47 e17a 843f 7b14 ae47 e17a 843f
0.009999999999998711 0.01

W26 f8 [2, 2]
00000000: 0d36 1a35 46a2 f13f 4e24 afbb 7a25 ef3f
00000010: e5d0 1b38 661f b1bf 39f0 a365 22c4 c1bf
1.1021177362739565 0.9733251252847681 -0.06688536519851913 -0.1387980457583369

b26 f8 [1, 2]
00000000: 9811 ae47 e17a 843f 7a14 ae47 e17a 843f
0.009999999999998718 0.009999999999999998

W27 f8 [2, 2]
00000000: 1391 7ba1 e1bf c13f 3f75 e920 5b57 debf
00000010: ee54 30bd 9151 f8bf 4a93 a58a b2d8 b13f
0.1386682547082577 -0.47408178533608586 -1.519914378184065 0.06971279034548875

b27 f8 [1, 2]
00000000: 7b14 ae47 e17a 843f 3423 ae47 e17a 843f
0.01 0.010000000000006538

W28 f8 [2, 2]
00000000: 241d a616 ae8d a0bf 7f33 3652 548a f03f
00000010: 206b d37d 3187 e33f ae3c 80b0 f338 f23f
-0.032330932869678614 1.0337718211551132 0.6102530915771673 1.1389042753760736

b28 f8 [1, 2]
00000000: dc15 ae47 e17a 843f 791b ae47 e17a 843f
0.010000000000000613 0.010000000000003105

W29 f8 [2, 2]
00000000: 0662 1b62 e688 e33f e9a9 a311 1e62 a6bf
00000010: dc32 9d7c b821 f63f b33d 3475 72be c93f
0.6104614177848482 -0.04371732678722024 1.3832325809227575 0.20112448428015525

b29 f8 [1, 2]
00000000: 1c17 ae47 e17a 843f 2f1c ae47 e17a 843f
0.010000000000001168 0.010000000000003421

W30 f8 [2, 2]
00000000: dbbf a754 9747 e2bf 5bea 7ac4 89b4 b7bf
00000010: 9ec7 9c45 d968 d1bf 8bf1 ca0d bd85 c6bf
-0.571239152281119 -0.09259854361418134 -0.2720244579132841 -0.17595637486909896

b30 f8 [1, 2]
00000000: 7b14 ae47 e17a 843f f5ed ad47 e17a 843f
0.01 0.009999999999982892

W31 f8 [2, 2]
00000000: 2ea8 ad1e d2cb c53f e66c 55bc 8dfa cc3f
00000010: 4073 760a 717b babf 776f 0379 a6d5 d53f
0.17028261659589944 0.22639629074078654 -0.10344606881558338 0.34116517846791033

b31 f8 [1, 2]
00000000: 4016 ae47 e17a 843f 37ba ad47 e17a 843f
0.010000000000000786 0.009999999999959914

W32 f8 [2, 2]
00000000: 4f93 82f9 7d54 d33f 2954 83bc a806 c53f
00000010: 3d10 0935 a92c bdbf a493 6a44 93a5 f13f
0.3020319878217394 0.16426572041260215 -0.1139627222519843 1.1029236481201474

b32 f8 [1, 2]
00000000: 824d ae47 e17a 843f 74c5 ad47 e17a 843f
0.010000000000025325 0.009999999999964905

W33 f8 [2, 2]
00000000: f5e3 fa2b 4855 efbf 2c91 8d05 a245 d33f
00000010: 0f8b 328c fecb f83f 0ac0 1b37 ec5e e6bf
-0.9791603907571004 0.30112505476269535 1.5498033024275093 -0.6990872455917281

b33 f8 [1, 2]
00000000: 43dc ad47 e17a 843f 7a14 ae47 e17a 843f
0.009999999999975034 0.009999999999999998

W34 f8 [2, 2]
00000000: 92ca 3846 fed3 dd3f 48fe 077a 8687 a23f
00000010: 0db8 4573 4d64 f23f c9e7 fb56 249f f9bf
0.46606404168702753 0.03619022597922289 1.1494879248452918 -1.6013530156910625

b34 f8 [1, 2]
00000000: 95bb ad47 e17a 843f 49b1 ad47 e17a 843f
0.009999999999960521 0.009999999999955949

W35 f8 [2, 2]
00000000: c05e bfa9 3136 efbf 9124 f5a2 885c f03f
00000010: caa5 6c95 0c35 e3bf f4e7 b564 4bad f23f
-0.975365478075183 1.0225912442713574 -0.6002257269330411 1.167308228874842

b35 f8 [1, 2]
00000000: 7b14 ae47 e17a 843f 08bf ad47 e17a 843f
0.01 0.009999999999962053

W36 f8 [2, 2]
00000000: 9392 6439 534d c43f b8d6 c4de dc4d d53f
00000010: 44bd d8c6 eef0 d6bf 5ba6 2b20 a9dd e93f
0.1586097746122915 0.3328773665883591 -0.358455366312189 0.8083081844644754

b36 f8 [1, 2]
00000000: e627 ae47 e17a 843f 9bb7 ad47 e17a 843f
0.010000000000008624 0.009999999999958755

W37 f8 [2, 2]
00000000: a9cc 01ff c519 e0bf 465b ebdc b869 0040
00000010: 7e91 a524 ab5a a9bf 046d f529 8444 e8bf
-0.5031461697202718 2.0516221293759456 -0.04951987097118414 -0.758363801909042

b37 f8 [1, 2]
00000000: f160 a647 e17a 843f 260b af47 e17a 843f
0.009999999999124461 0.010000000000109543

W38 f8 [2, 2]
00000000: 1cb1 cbca 4ccc c63f 7430 ff0c 3e16 9abf
00000010: 0dba b3e0 fa20 0040 722e 7544 0299 f63f
0.17810974027759918 -0.025475472968353022 2.016103511318994 1.4123556779985873

b38 f8 [1, 2]
00000000: 9510 9347 e17a 843f f2bc 1648 e17a 843f
0.009999999996928724 0.010000000011898245

W39 f8 [2, 2]
00000000: 0674 64cd 7cf3 d93f 4108 788e 078a cfbf
00000010: 160f 7f42 51c6 f9bf 046d 8e8d cc90 ee3f
0.40548629815913306 -0.24639982658851703 -1.6109173390877394 0.9551756634495239

b39 f8 [1, 2]
00000000: 6fba af47 e17a 843f 983b 1b48 e17a 843f
0.010000000000187385 0.010000000012409235

W40 f8 [2, 2]
00000000: 1953 2ccc f162 f43f 5996 22ed fc68 d8bf
00000010: e7c1 82bc 96a1 e93f 8cc0 c222 2f94 a93f
1.2741563773644826 -0.3814079585812116 0.800975197014904 0.04995868014646118

b40 f8 [1, 2]
00000000: d41f 3148 e17a 843f b858 c247 e17a 843f
0.010000000014898015 0.01000000000230404

W41 f8 [2, 2]
00000000: 24d2 fcd6 7c75 e13f 26f3 b3e1 bfd0 f03f
00000010: 603b cfe4 451a ec3f af00 d064 40dd f13f
0.545591754815693 1.050964242603365 0.8782071560798208 1.116516488837117

b41 f8 [1, 2]
00000000: 9d95 2e46 e17a 843f 552e ee48 e17a 843f
0.009999999956401601 0.010000000036391269

W42 f8 [2, 2]
00000000: cf7d a5db 6186 cbbf 8874 e56b 924b e1bf
00000010: bc5b d313 87bc c83f 26c9 68f5 c671 c53f
-0.21503852105068552 -0.5404750926351349 0.1932534071736124 0.1675347040450756

b42 f8 [1, 2]
00000000: 23c4 af4d e17a 843f c844 f547 e17a 843f
0.010000000174814677 0.010000000008093216

W43 f8 [2, 2]
00000000: 9169 c871 deb7 c4bf a6b9 6ac5 2994 eabf
00000010: 6968 1c26 3e7b fcbf c4bc 6086 88b2 f53f
-0.16186123424342871 -0.8305863242911087 -1.7800885666570372 1.3560872315536452

b43 f8 [1, 2]
00000000: 9b3c 5e1c e17a 843f f7cd 1f49 e17a 843f
0.009999998739458163 0.010000000042032815

W44 f8 [2, 2]
00000000: a053 acd6 d740 fb3f d04a b2f5 957e a1bf
00000010: 722b 61df f04c c3bf ebcb cb52 bdfe fb3f
1.7033308396978342 -0.034168897859805036 -0.15078555018620993 1.7496922716352354

b44 f8 [1, 2]
00000000: 0934 3531 e17a 843f 1342 e2af e17a 843f
0.009999999345973636 0.010000003032730331

W45 f8 [2, 2]
00000000: de10 e45d ce44 f5bf 2562 7278 8581 d63f
00000010: 02dd 4d95 9ef2 e3bf 7bda 1951 2342 fcbf
-1.329298369179973 0.35165535700210376 -0.6233666339966535 -1.7661469619758055

b45 f8 [1, 2]
00000000: 9b79 d348 e17a 843f d362 480e e17a 843f
0.010000000033355152 0.009999998329520398

W46 f8 [2, 2]
00000000: aea2 28f3 b3b9 f2bf e2a6 f658 808e e13f
00000010: 1ff6 0d62 adfb dd3f 270f d02f eb5f d8bf
-1.1703376291645031 0.5486451852386518 0.4684861619533382 -0.3808544127389148

b46 f8 [1, 2]
00000000: f6f4 a309 e17a 843f 0c3f 238d e17a 843f
0.009999998194411646 0.010000002021484565

W47 f8 [2, 2]
00000000: ab5d 9aae b76b f5bf d02c 8a71 631b e7bf
00000010: 33a5 b58d a755 ed3f 9ae8 cf1f 85da 95bf
-1.3387982197217336 -0.7220933168004198 0.9167058723225295 -0.021341400210055463

b47 f8 [1, 2]
00000000: 3cfd b28f e17a 843f 03ae 2615 e17a 843f
0.010000002096033904 0.009999998529415249

W48 f8 [2, 2]
00000000: 58a5 d4e8 d215 d73f fc71 0e76 4392 cc3f
00000010: a33a dad8 4309 eabf 5a8f 5498 ce77 c63f
0.3607070230232998 0.22321360840295756 -0.8136309848212772 0.17553121984485182

b48 f8 [1, 2]
00000000: 80a3 06a6 e17a 843f d6e0 e8e6 e17a 843f
0.010000002745828018 0.010000004634193631

W49 f8 [2, 2]
00000000: 47ce 48ae b49e c03f d7df 3915 fbd7 ea3f
00000010: e9e0 1c9d a8b4 d03f 9d1e 6fc4 3439 f73f
0.12984331617336606 0.8388648428508486 0.26102652876899285 1.4514663384633544

b49 f8 [1, 2]
00000000: 2f6c 05dd e07a 843f 40b3 d6c4 e17a 843f
0.009999996895819844 0.010000003642596789

W50 f8 [2, 2]
00000000: 5cda a377 1df8 ccbf 6b75 4bb5 fddd fa3f
00000010: 48ff ec54 422b cfbf 675c 3609 aa6e fcbf
-0.22632187215613697 1.6791970331026629 -0.24350766321912887 -1.7770176277024576

b50 f8 [1, 2]
00000000: b545 1b2f e17a 843f d5c3 0107 e17a 843f
0.009999999284817965 0.0099999981177649

W51 f8 [2, 2]
00000000: 76ae 093f 1d6a e43f e457 1eec 5143 e53f
00000010: 7a05 dab7 2396 0540 008e 4c5f 4281 e53f
0.6379533988196744 0.6644677745523464 2.6983103145036553 0.6720287190732392

b51 f8 [1, 2]
00000000: f376 04f6 d97a 843f 9dd7 ea59 da7a 843f
0.009999945469242521 0.009999948376712637

W52 f8 [2, 2]
00000000: 71ec b38e 1f15 d63f e353 2e72 82cf d73f
00000010: a67e 4381 3816 c63f b56f afd1 4719 e13f
0.345039262159566 0.37204037809834584 0.1725531226320431 0.5343360038200361

b52 f8 [1, 2]
00000000: 864f 5390 d67a 843f eeb0 b736 d87a 843f
0.009999920157873776 0.009999932451102169

W53 f8 [2, 2]
00000000: bbe7 8675 a71b cb3f e1af 7ab1 0117 0040
00000010: a333 2740 8214 e33f c019 a710 38cb ec3f
0.21178143728849172 2.011233698422061 0.5962535145750859 0.8998070073364985

b53 f8 [1, 2]
00000000: d6f4 090d d97a 843f 45c2 caff dc7a 843f
0.009999938688674364 0.009999968105462229

W54 f8 [2, 2]
00000000: 7147 72ec 43e7 cebf 6e0f 46e6 9a00 febf
00000010: 4159 fa20 2fde e1bf bc43 97e7 38e1 dd3f
-0.24143265767321112 -1.8751477236810064 -0.5583720821476065 0.4668714772824918

b54 f8 [1, 2]
00000000: 2b43 b52a eb7a 843f fa83 1f3f e47a 843f
0.010000073662611427 0.010000022102703444

W55 f8 [2, 2]
00000000: eed3 9d4a 92eb eb3f 8971 9f37 250f d13f
00000010: 43c0 5f6b 5e15 d13f e38e af57 a855 a83f
0.8725062806466874 0.2665494006339704 0.2669292496275412 0.047528515533284986

b55 f8 [1, 2]
00000000: 13c4 0889 f57e 843f 3ca3 b264 867b 843f
0.010007780308201963 0.010001230190327719

W56 f8 [2, 2]
00000000: 62fd 0c0e c1e7 e4bf 12f9 fba8 ba1d 0240
00000010: d9d3 65d6 2934 f1bf 3d06 6cb8 a9a9 d73f
-0.6532902979305784 2.264516182126621 -1.075235211840882 0.36973040590246226

b56 f8 [1, 2]
00000000: b02e 4ca6 e67a 843f dcd5 d651 a07c 843f
0.010000040006637206 0.01000333070519848

W57 f8 [2, 2]
00000000: 77a3 616f 791c bf3f 4929 1867 0298 d2bf
00000010: 6f8c f63d bd0a d53f 2d22 c579 0039 cbbf
0.121528234188771 -0.2905279166012816 0.3287804703815657 -0.2126770586567245

b57 f8 [1, 2]
00000000: c560 2cac ba7b 843f 2581 70b3 4274 843f
0.010001619700730999 0.009987374402101576

W58 f8 [2, 2]
00000000: 931a c3dc acce ae3f d86a 7b0e 01cd eabf
00000010: 0a92 2d7e 3c57 e4bf 5cc2 e716 581a ccbf
0.060170556972981924 -0.8375249178746698 -0.6356489624418498 -0.21955395811484635

b58 f8 [1, 2]
00000000: 6260 43e6 0685 843f a720 6824 a17a 843f
0.01001935377318847 0.009999522136255058

W59 f8 [2, 2]
00000000: ff1f fbdb 796f d13f 418d 07b1 256c d43f
00000010: bb6f 1e11 8e5d d43f 5364 dbdf eae9 e23f
0.2724289558650525 0.31910078323399566 0.31821014091269334 0.5910543796736739

b59 f8 [1, 2]
00000000: 140f 8b0f 265e 853f 3c13 fbf2 92d7 833f
0.010433480595913681 0.009688518562492747

W60 f8 [2, 2]
00000000: dc8e bf1f 443b c13f 7198 bbaa 55e3 ffbf
00000010: 88e8 8eb5 f919 babf e082 265b 557f e43f
0.1346211581250064 -1.9930016202211187 -0.10195885355543244 0.6405436306268619

b60 f8 [1, 2]
00000000: dc4e 9cf1 ff47 8a3f 2a94 f36e 0471 843f
0.01283264118277521 0.00998118842694325

W61 f8 [2, 2]
00000000: 7fce 8b8c 1a36 e8bf 4434 9a93 1156 d8bf
00000010: 71f4 7458 a104 ca3f 8c9d 63c1 4c9c d43f
-0.7566044564286613 -0.38025321401875467 0.2032663041990506 0.3220397842946674

b61 f8 [1, 2]
00000000: e96b 2845 5623 823f fa34 372b fecc 743f
0.00885646246483947 0.00507830891315319

W62 f8 [2, 2]
00000000: 17a1 1a44 a305 f33f 146e f395 e541 f3bf
00000010: 7c68 3416 6638 d3bf a88f 9ed6 c21b cb3f
1.1888764057458212 -1.2035880906540841 -0.3003173081248247 0.2117847011514844

b62 f8 [1, 2]
00000000: f951 a04c 8758 cb3f 2c23 63f9 41e5 cc3f
0.21363917581096795 0.2257463901244362

W63 f8 [2, 2]
00000000: e507 92b9 ea60 eabf c95e ed62 6b5d f03f
00000010: 57eb 671f 706d ddbf 0ca1 e0d2 2b5f f13f
-0.8243306755468863 1.0228074898094965 -0.4598045641611654 1.0857351529503516

b63 f8 [1, 2]
00000000: 426a 7992 5a67 823f cd81 57e4 5e1c ca3f
0.008986194224395953 0.20399080419066565

W64 f8 [2, 2]
00000000: 1b0c 3821 3a20 e5bf 39a7 7132 b083 e53f
00000010: 6be0 5ece f80b f43f 728b 412d 4a21 e1bf
-0.6601839684302634 0.6723252282365372 1.252922826895907 -0.5353136905581393

b64 f8 [1, 2]
00000000: f3e8 2e94 c07e c53f 3947 9fca aeeb 933f
0.167930672030543 0.019453745953632782

W65 f8 [2, 1]
00000000: 0813 875b 835a d93f 76dc 8dd9 fc66 e73f
0.3961494821381142 0.7313217400650405

b65 f8 [1, 1]
00000000: 4fd7 3470 d71c f43f
1.2570413954794792
