best_model_weights_e5.npz (npz, 7053 bytes, 8 tensors)

W0 f8 [8, 16]
0.07134403518513269 0.01222450710714473 -0.04776934189778915 0.0014685563505700621 -0.009838820245917103 -0.026117449758564597 -0.07262230105177613 -0.027328259686917714
0.016454381816888318 -0.009382444481990564 0.03508340497282833 -0.07159568864244971 -0.011820004811927307 0.05101617621846303 -0.025519014352801184 -0.06270197846493723
0.014693927385339743 0.0033868394039167004 -0.00676906162689849 -0.013165013153209644 0.028229962397232636 -0.006454670631264342 -0.03191677732265949 0.01431415416448592
0.007020469162405939 -0.02046216837688785 -0.004802966599068103 -0.013860383664986617 -0.0630841705137791 0.03365519326537011 -0.016097350153902103 -0.03550169491373354
-0.06424401372777615 -0.023871848337527864 -0.027196267351490135 0.05520976909793529 0.003880942468349043 -0.02700660133789404 -0.007027248161883942 -0.0013962557931309892
-0.013791516410522606 -0.020108065176702834 -0.06196987965907834 -0.05443892920930138 -0.0592350576997626 0.049463778163030665 0.019098014960986422 -0.017160177929305506
-0.01446449970582231 -0.04275351906249959 -0.021066878861961798 0.011583624252128846 0.04257476363300289 0.037644970343603416 -0.0038522552467375655 -0.005898143897996681
0.025912687576931985 0.08648423495818 -0.02382085902712707 -0.054989611558539965 -0.004074944421589766 -0.014380966009136839 0.04033493548583615 -0.02698487464440736
0.01751447549307565 -0.01252752533177599 -0.008576630214905403 0.022376216082424596 0.021697065417034533 0.024044189717526275 -0.018378144472126857 0.031427849658678175
0.030123553781522847 -0.031289653114497266 0.07918343545679205 -0.012298107380243763 0.018629304280147998 -0.017089244666509726 0.027976141698839142 -0.05271713826557725
0.05399879745795327 -0.043179144671078674 0.0056431017648986516 0.023772815649633516 -0.011950367956897152 -0.0068740870756523005 0.046002632513010476 -0.048179626281868046
0.024620600075331237 0.070034153595066 -0.015851775735912444 0.03919907327107717 -0.04743114551770744 0.007863133173801166 0.030960011502750788 0.008836408250771956
0.03346959006534082 -0.0368669270560299 -0.032814637842193614 -0.02478506203884799 -0.01873287307256507 -0.025812987452539442 0.12012574592209234 -0.0037923734681109458
-0.009419746301838151 0.01018074122085385 0.0205771610488673 0.0015593295657686294 -0.03117606016339564 -0.03742707750805368 -0.006438980606083495 -0.013347028300991605
0.04972274179644039 0.01779038031103444 0.0451152992070945 0.03865018873796229 0.01803091390019378 -0.03653181181869757 0.021707337987251173 0.052189669446061536
0.05651844985413609 0.025246139190903204 0.07111077494138014 -0.022587978098165467 0.03820310908494449 0.06609075654024543 -0.0511762283747836 -0.010430931308218759
00000000: 7283 e249 9a43 b23f 7e16 e191 2909 893f
00000010: 21a7 6722 3975 a8bf a1bf df5f 920f 583f
00000020: c7de 7f19 6026 84bf cb96 4562 88be 9abf
00000030: ef46 fa07 6097 b2bf b197 7276 f0fb 9bbf
00000040: 8623 1edf 6ad9 903f 894a a761 1a37 83bf
00000050: bc32 fbb9 73f6 a13f e900 4155 1854 b2bf
00000060: a5a8 d830 1635 88bf 35bd d9d0 ca1e aa3f
00000070: 7026 4910 a821 9abf 43c2 e6a2 3c0d b0bf
00000080: 9904 8f8c d917 8e3f ee85 408f b7be 6b3f
00000090: f783 fe24 e0b9 7bbf 5139 8e27 42f6 8abf
000000a0: 01bf 0db5 50e8 9c3f 60a1 4874 3670 7abf
000000b0: 8ccd 9655 6557 a0bf 500b 0d40 bd50 8d3f
000000c0: 7221 48d7 7ec1 7c3f 1e98 efdf 08f4 94bf
000000d0: 0cec 7787 46ac 73bf ebb6 6834 d562 8cbf
000000e0: 0681 40c1 4826 b0bf 5ba5 d4e4 403b a13f
000000f0: 7a63 dae1 d27b 90bf edcf 3635 472d a2bf
00000100: dbb0 ecb1 4b72 b0bf df77 9e9f dc71 98bf
00000110: d745 649b 56d9 9bbf 1004 6471 7444 ac3f
00000120: 2bbe 551f edca 6f3f c9e6 1656 9ea7 9bbf
00000130: 8624 9490 9ac8 7cbf 7a6a f93d 52e0 56bf
00000140: d843 90ff b93e 8cbf 2273 4769 3597 94bf
00000150: 7612 f21c 84ba afbf 509a 2a59 6bdf abbf
00000160: 16be 31b7 0e54 aebf 39f8 17fb 5053 a93f
00000170: a72d b416 6e8e 933f ece7 ff0b 7092 91bf
00000180: 011d 8449 909f 8dbf 521f 530c cae3 a5bf
00000190: a2b3 f64e 8e92 95bf a807 a8ba 27b9 873f
000001a0: 589a e002 5ccc a53f 3726 f898 3346 a33f
000001b0: ad5e 9ec9 c38e 6fbf 6b4b 62f2 a628 78bf
000001c0: be0d c706 db88 9a3f 9ed4 c3b0 d423 b63f
000001d0: a6c1 efc9 7e64 98bf 1d00 872e 9927 acbf
000001e0: 2743 6190 e3b0 70bf 3894 8d95 c473 8dbf
000001f0: 168b 98d9 c7a6 a43f 226a 5648 eca1 9bbf
00000200: 4c23 cc8d 50ef 913f 665e ccfc 07a8 89bf
00000210: 4163 43d2 9f90 81bf 4704 2171 cae9 963f
00000220: 8095 8a69 c137 963f 367d fb41 0a9f 983f
00000230: ea33 e065 b8d1 92bf e06c efa4 4f17 a03f
00000240: 59e1 5279 b5d8 9e3f 3fef a889 3205 a0bf
00000250: 46fe ab99 5d45 b43f 14ba 0108 c02f 89bf
00000260: 8799 8572 8f13 933f 1cf2 d2cb d77f 91bf
00000270: 0abb a816 c7a5 9c3f 9427 94a1 bdfd aabf
00000280: a7e1 35fa baa5 ab3f d58b 76ac 931b a6bf
00000290: 5bab 7398 381d 773f 40fd fea6 e657 983f
000002a0: 2a7b 663c 6f79 88bf 0b64 e0b2 0028 7cbf
000002b0: fbb8 5834 a88d a73f d6a1 6dfe ffaa a8bf
000002c0: f198 8680 2436 993f b539 4b1f c2ed b13f
000002d0: fd21 7aa9 723b 90bf 7d2f 77a3 e611 a43f
000002e0: e0e8 9e25 e548 a8bf c2c3 9ade 8b1a 803f
000002f0: ae69 8d33 fbb3 9f3f 14ff 9ba3 d218 823f
00000300: 057a 7b15 ed22 a13f f0f2 04cc 38e0 a2bf
00000310: 1e80 b988 14cd a0bf 9c73 8b5b 4161 99bf
00000320: b6bf d3d4 b52e 93bf fbcf ae43 b86e 9abf
00000330: 1f9b 2496 8fc0 be3f 6cd4 a100 2f11 6fbf
00000340: 7491 6cf2 a84a 83bf 6ca8 bdf4 a3d9 843f
00000350: 5d65 ffe6 2d12 953f 963d 465f 4d8c 593f
00000360: 3197 47fb 9dec 9fbf a78e c353 a429 a3bf
00000370: 7b9b f6b1 c25f 7abf a190 69d0 af55 8bbf
00000380: 0a2e c45b 4275 a93f 8728 7a36 a437 923f
00000390: 6796 493d 5a19 a73f ca40 3a21 f5c9 a33f
000003a0: 8dc3 1226 b276 923f efc3 0c32 4cb4 a2bf
000003b0: 732f f4ca 723a 963f 0376 ebb6 9ab8 aa3f
000003c0: abfe 7c7b fcef ac3f d665 b3b8 1fda 993f
000003d0: ad35 c4d4 5034 b23f bb87 db8c 4d21 97bf
000003e0: cd2e 40a0 5b8f a33f 3883 e8e5 52eb b03f
000003f0: da96 6746 c533 aabf 9f5a afe6 cf5c 85bf

b0 f8 [1, 16]
0.3022869129462548 0.024533743835897365 -0.036300436382899696 0.25445419824004384 -0.08355576452561635 -0.007479180228436904 0.011948235373793822 -0.01930902475273508
0.19887109587628585 0.05111344879594455 0.02199161114890759 -0.03583120287887656 -0.02155507930196582 0.35851264545075534 0.0719661360330018 -0.027156137409099373
00000000: cb3a 4735 ab58 d33f a5c9 b1ad 5f1f 993f
00000010: afae 3086 f895 a2bf 3f56 f142 fa48 d03f
00000020: eba0 071c e963 b5bf 3961 b627 7da2 7ebf
00000030: 6b20 6701 5178 883f 5996 52b7 bec5 93bf
00000040: 1944 74aa 9b74 c93f 9abf edbd 8a2b aa3f
00000050: 4402 af0a f884 963f 240d 15a9 7758 a2bf
00000060: b194 a8e2 8812 96bf c275 da05 dff1 d63f
00000070: 1565 ae68 5f6c b23f 7b26 3b88 d1ce 9bbf

W1 f8 [16, 16]
0.01348711546995667 0.0676710244611053 0.013255441626308859 -0.02465545260068517 0.0008061797884370531 0.04134954536080405 0.01734231417600252 0.08360834630293557
0.039627676902837757 0.006099065721747289 -0.01414103851577511 -0.0319594968099206 -0.02348000520939049 -0.015231504435758709 0.016617955308854526 0.04550920302031543
0.01760536303343654 0.006192366729700765 -0.0017797559258411904 0.025324881147280084 0.011769364628770014 -0.00895364142140366 -0.03451545519691716 0.00794961552386642
-0.01172245586401715 0.008435628112719872 -0.012634261019386674 0.013045163811596764 -0.03062447779057789 -0.05897321666939367 0.002037869362054723 -0.005797952572355246
0.0004444883375057117 -0.019533077578259495 0.038598336655266914 -0.012121270992643991 -0.0173719212666637 0.004073637276509813 0.013069613515065892 -0.011947215988562155
0.010533219393346336 -0.04684696039032811 0.008450670156232418 0.0017511329820066295 -0.03833980660305116 0.007071844572904893 0.02196178536124611 -0.006555176881608964
-0.017047380943562188 -0.006263209640587086 -0.0032347310015660986 0.0634127836597911 -0.021312707741143633 0.007550678344299021 -0.009198622061013257 0.07756786881977713
0.03308233337005928 0.014260358714964195 -0.0026194485288641455 0.0259732206560235 -0.04356812728233272 0.007436096076161305 0.0274038322327024 -0.009834703623145149
0.029044466165735857 0.025931485420981042 0.03305868448383324 -0.03478538712597326 -0.040944984338168754 -0.02439504643303643 -0.02870646001695287 0.00925738915061069
0.0019769469547000207 0.01730945370590071 0.07505793577124462 -0.035837273419157996 0.0016231964758337753 -0.013716728976741905 -0.04417328672723403 0.02741759946356701
0.007987193516414644 -0.024843980963535 0.006758423563889892 -0.012516683976720443 -0.0036505292948913843 -0.004582188953718698 -0.002042116728475679 0.01230654654131676
-0.010946585856583736 -0.0221798873638993 0.023417229104990053 -0.030536611698994756 -0.03086454955551448 -0.029071677584216898 -0.012928733634356846 0.018478484509815877
-0.002790737729264567 0.004637496900001074 0.04117651332796772 -0.008809447447650186 0.04948546138492955 -0.00963304498725826 0.016019583243391373 -0.03164187114622698
0.005788057727679135 0.004106730308446628 -0.005815168235526843 0.005703834382170433 -0.018562013647149322 0.02398702820943527 -0.004468620918927966 -0.013958407891720134
-0.013992359103685351 0.03587736776963069 0.0159528918308127 0.0057969486988890375 0.03301060262588014 -0.02508538015313945 0.017146826506983136 -0.02272550780615204
-0.0011809689446894756 -0.04862021145224781 -0.036616362425524254 0.015962000762700147 -0.00623636502094353 0.002092532102729015 -0.031805336018334705 0.04559217959431617
0.012189702856556982 0.0012954718214158712 -0.019524518902918644 -0.012983014505147788 0.020436839083018212 0.04798208108496023 0.03141600700956411 0.007123580184346748
-0.002340458283151841 0.012718516669244841 -0.05320992135889329 0.027646314061676454 0.004850462301106255 0.050080431098415326 0.013006392423894722 -0.020591858655769037
-0.018368775913606354 -0.028163191402080717 -0.03095103640580647 -0.017290187409594416 0.02066468779770541 -0.022555224900506876 0.03283974257058679 0.03481445209911391
-0.02380540176445537 0.00718503415722556 0.0049249982847250325 0.00815266929797571 0.010152498326204797 0.005487481884363335 -0.029312910867920497 -0.006928429108271163
-0.03729978397160009 0.031030011663619503 0.013231322263049275 0.030300986561575677 -0.019963569079892267 -0.001778061401543029 -0.02090244082897298 0.030119415202634822
0.01648479228540212 0.06067953683404826 -0.004447644345983825 -0.03183451275254527 -0.003580054048346006 -0.02025388842170271 -0.001178837530548252 0.029239293252266665
-0.038259536323442846 0.0014839689830667285 -0.027935178264501054 -0.03824320956207445 -0.0015636853341318496 -0.013901386370772052 -0.015564167370383342 0.003456373073369893
0.0016595658209671885 0.014630535540771301 0.014780992051379343 -0.00483393109983013 -0.022013140962077297 -0.005892237010575373 0.009126171704919766 -0.008591949022243238
-0.05145374406085048 -0.03542588948167332 -0.013135830377286838 0.01720643004037861 -0.029375719888259155 0.01339053004762305 -0.00550022506924707 -0.011483497720632563
0.04202723816483394 -0.00019332330215590833 0.011303922917832422 0.0016203247807263744 0.017925918545553133 -0.038214817528255035 -0.03635109428271903 -0.016450044480346
0.034439652459484126 0.03793961886750787 0.02009107005788049 0.03646831485219241 -0.02807090975313893 0.03452061491614232 0.01744414733776414 0.037461344440892726
0.013441321383458287 0.03821605219562685 -0.01143924577223266 -0.003931845067092192 -0.005076580297533837 0.0471357782398539 0.031686074955000705 0.0254546993559838
-0.034609893215667424 -0.03587140251353237 0.032826771718524286 -0.020145381125893407 0.01655248101914694 0.06589874062264517 0.007228691984139232 -0.004272008104242523
0.026795196271790115 -0.04528015354977045 -0.030958336838004308 -0.007991634607894977 -0.00018794056120806173 -0.02034610393214175 0.003555386161992729 -0.0216402209433448
-0.00669977479552159 0.03350050829607108 -0.005366831672345781 -0.022054084639791718 0.021091257317071437 0.05160541721183637 0.01435626721792438 0.005186358326351916
0.009718682612512514 -0.0373309694675576 -0.0006061337096185668 -0.030048991192895693 -0.010724132171249593 0.03128197380834185 0.009411862840362478 0.008455650744051248
00000000: dbff e2fe 219f 8b3f d97f f264 e352 b13f
00000010: f875 3b42 ab25 8b3f 2a22 5a6a 473f 99bf
00000020: e775 bbe9 b96a 4a3f 11e9 0e82 c42b a53f
00000030: c13c e400 2fc2 913f 4033 0b49 5b67 b53f
00000040: 51d7 a030 144a a43f 4219 fa7c 55fb 783f
00000050: 4f62 a70f faf5 8cbf 5fc1 30c3 fe5c a0bf
00000060: 14dd ef79 240b 98bf 7d1b 5deb b131 8fbf
00000070: 33ca 4f1a 4c04 913f 9a4f 4775 fb4c a73f
00000080: c7ec d9e9 2307 923f d225 6cc9 2a5d 793f
00000090: 4533 c45f d628 5dbf 2ceb 3501 c4ee 993f
000000a0: 11f2 6661 891a 883f 4829 ae68 4956 82bf
000000b0: e5fb 8d7e 02ac a1bf c2b7 8655 e347 803f
000000c0: 5c9f 8464 f101 88bf a63c ecd6 b246 813f
000000d0: b461 19cf fddf 89bf 22bf 883f 6cb7 8a3f
000000e0: a73b 45ea 055c 9fbf 1bb4 dec9 bc31 aebf
000000f0: cdf6 6ec8 b8b1 603f e592 e90a 98bf 77bf
00000100: 1294 7fdf 4621 3d3f 1d30 8ea5 7a00 94bf
00000110: a18e 3a43 29c3 a33f 24b0 fe73 09d3 88bf
00000120: 0f06 d6e6 f1c9 91bf 28d4 0dae 84af 703f
00000130: 93d3 f2d4 3dc4 8a3f adcd 972f c877 88bf
00000140: 1f33 87c6 7092 853f 4241 9625 53fc a7bf
00000150: a537 9abf 954e 813f f8e4 dfb8 c8b0 5c3f
00000160: c379 fd6e 46a1 a3bf 8abc 9bd2 5df7 7c3f
00000170: b3a4 8d77 267d 963f d251 37e5 99d9 7abf
00000180: 644b 8a5e de74 91bf 4c63 3089 73a7 79bf
00000190: bf61 9efb b87f 6abf 9195 f7f7 d13b b03f
000001a0: b01d f39a ffd2 95bf 8b73 d2c8 75ed 7e3f
000001b0: aace 5c27 bad6 82bf fd25 cde3 7cdb b33f
000001c0: 30af cce7 2af0 a03f 2de1 7af2 8834 8d3f
000001d0: 8519 7bb8 6175 65bf c75b 2855 b998 9a3f
000001e0: ffb2 a6c3 8f4e a6bf 43fb 4fd7 4f75 7e3f
000001f0: 87ea e50c c00f 9c3f e107 6b93 3724 84bf
00000200: bf17 3f21 d5bd 9d3f 6b7d 4787 c88d 9a3f
00000210: c6e7 6961 11ed a03f f464 2be8 63cf a1bf
00000220: 73d8 55b1 bdf6 a4bf 3409 75da 03fb 98bf
00000230: bfb4 d3eb 3965 9dbf fd8c 2fbd 89f5 823f
00000240: 800c 8650 f531 603f 525a 50c6 91b9 913f
00000250: fe58 7133 ff36 b33f d14d a05a 4359 a2bf
00000260: 5f08 d6f1 2d98 5a3f 77d6 e732 8417 8cbf
00000270: a85a b38b e19d a6bf 7996 1ff4 5b13 9c3f
00000280: 84c2 84f7 965b 803f fb9b f656 b370 99bf
00000290: 7fea de82 b8ae 7b3f 39d0 ace2 58a2 89bf
000002a0: d6a3 e8fd b6e7 6dbf bb7c 34fb c5c4 72bf
000002b0: 4084 0712 a1ba 60bf ea8d 5fb7 2c34 893f
000002c0: d418 0ee2 296b 86bf 1d7a 6d0b 53b6 96bf
000002d0: afec aca4 affa 973f 94b3 4f52 fd44 9fbf
000002e0: 4e6d c9db f49a 9fbf 9b34 db41 f7c4 9dbf
000002f0: f226 1b41 617a 8abf 91e2 981a 06ec 923f
00000300: 60c9 ece8 99dc 66bf ab38 5598 c4fe 723f
00000310: 76bf 3684 1615 a53f acc8 7705 b00a 82bf
00000320: 392e 8d8c 2856 a93f c309 7369 7dba 83bf
00000330: 02f0 8008 7067 903f a2bb 8303 5d33 a0bf
00000340: ac26 5dea 37b5 773f 5b6f e405 38d2 703f
00000350: 6ff7 4656 a5d1 77bf c9ad 2162 e75c 773f
00000360: f0e8 3fa6 eb01 93bf 9142 c036 0e90 983f
00000370: febf 474b b04d 72bf 187e 31cb 3996 8cbf
00000380: c227 f4a5 06a8 8cbf e168 79b2 845e a23f
00000390: 7a86 c272 f455 903f 8dca 4091 8abe 773f
000003a0: aa18 6605 c4e6 a03f 843b 765d fbaf 99bf
000003b0: f38a 4f0c f08e 913f e8e9 3f03 5b45 97bf
000003c0: 9a9e aebf 5759 53bf 3f59 3994 bfe4 a8bf
000003d0: c272 3b3e 61bf a2bf fda1 04bd 5758 903f
000003e0: ad53 f97c 4d8b 79bf 633e 4e9e 5b24 613f
000003f0: b3f6 12fc c948 a0bf 6134 9fb0 db57 a73f
00000400: 8c59 ef38 eaf6 883f fb95 c646 9a39 553f
00000410: 27f7 a148 3cfe 93bf a9f4 9fb5 d696 8abf
00000420: e70f fb0d 65ed 943f fa9b 1b7a 1b91 a83f
00000430: ba9d 5a45 c215 a03f dd57 c17e 9d2d 7d3f
00000440: a5cd 14f9 4b2c 63bf 412e 2f69 2a0c 8a3f
00000450: a74c 1eb0 543e abbf 72d7 ffba 504f 9c3f
00000460: c57c 420f 14de 733f 227c 796b 24a4 a93f
00000470: 5beb cb70 18a3 8a3f d726 f63d 0816 95bf
00000480: 6e16 44af 43cf 92bf ab79 17c8 cfd6 9cbf
00000490: 2b9c 8fe4 a0b1 9fbf dd19 ddd5 84b4 91bf
000004a0: 6ec0 17b9 1f29 953f 20d7 3485 b718 97bf
000004b0: b60f b3e8 5ed0 a03f ac40 632a 33d3 a13f
000004c0: 8a97 2f78 7160 98bf 5165 9deb 0d6e 7d3f
000004d0: fd4f 0d29 3c2c 743f 254b 14c0 58b2 803f
000004e0: c11b 4542 d5ca 843f 1015 b1b3 0a7a 763f
000004f0: d4f5 1c26 3404 9ebf e840 ec06 fc60 7cbf
00000500: 459d 9c10 f518 a3bf bcb2 28d5 54c6 9f3f
00000510: d597 3803 0619 8b3f a825 46c9 3807 9f3f
00000520: fe00 3d71 5471 94bf 305c 79e4 ba21 5dbf
00000530: 236c 110f 7367 95bf dc70 14bd 9fd7 9e3f
00000540: 4116 fdae 63e1 903f 4132 7a64 6311 af3f
00000550: 3ff1 2970 b137 72bf 8603 50fe 9c4c a0bf
00000560: 9e22 c7e1 ea53 6dbf fb5b 8d71 6fbd 94bf
00000570: db2d 0629 6750 53bf 3447 1bc1 e7f0 9d3f
00000580: 25e3 8902 c196 a3bf c502 0990 3750 583f
00000590: d541 3714 0a9b 9cbf 49f3 b92c 9d94 a3bf
000005a0: a1e3 c357 929e 59bf 27f7 a67e 5478 8cbf
000005b0: 3a1b c32e 1be0 8fbf 2244 032a 8a50 6c3f
000005c0: 91a2 4d3b b930 5b3f 3758 5d3d 9df6 8d3f
000005d0: 2373 b42b 7f45 8e3f a019 c27f becc 73bf
000005e0: 61b4 0ee2 9c8a 96bf e5d5 2b54 7522 78bf
000005f0: e91d 1508 beb0 823f 79b8 79e0 a798 81bf
00000600: e307 ff27 2558 aabf 8bd0 8299 5723 a2bf
00000610: 868f 024f f5e6 8abf 67a4 37f9 8f9e 913f
00000620: 00ba dd30 ab14 9ebf 4d90 0b85 7e6c 8b3f
00000630: f75a b06c 6787 76bf 60ff 3af9 a884 87bf
00000640: a717 eb1a 9884 a53f 3eec 4785 da56 29bf
00000650: 741f fdd9 8226 873f eca9 4b7c 228c 5a3f
00000660: bd9a 9d07 2c5b 923f 1c4f 037f e490 a3bf
00000670: 6676 3c52 9c9c a2bf 954a 3ecc 47d8 90bf
00000680: c388 fff9 12a2 a13f e36d 845c d26c a33f
00000690: 4768 5ce3 c092 943f 75c3 4297 f9ab a23f
000006a0: d44e 6fdd 9ebe 9cbf 5e8d 34a0 afac a13f
000006b0: a709 4ae9 e0dc 913f 49c4 7922 222e a33f
000006c0: e94a 0e9e 1f87 8b3f 9092 b9ec 0d91 a33f
000006d0: 4475 dc93 756d 87bf eb1a 9e9f d61a 70bf
000006e0: caa1 a725 2ecb 74bf 0bfb 0544 2e22 a83f
000006f0: d935 573f 2839 a03f 29c9 0df5 cb10 9a3f
00000700: 8f6c f54e 63b8 a1bf 2f86 5089 bc5d a2bf
00000710: 4abb edad abce a03f 8b98 67a4 fda0 94bf
00000720: d75f 9432 22f3 903f 9c64 d267 bdde b03f
00000730: 89c1 a23a d59b 7d3f 5e16 8971 867f 71bf
00000740: 517e b52e 3370 9b3f 21e9 4ed5 f52e a7bf
00000750: a0f7 07d1 8ab3 9fbf 7d8a 420a eb5d 80bf
00000760: b80d c220 3da2 28bf be50 f5eb 9bd5 94bf
00000770: 5809 4b69 2f20 6d3f b665 eba4 da28 96bf
00000780: 4681 321a 3971 7bbf 7edf 0f87 fa26 a13f
00000790: a3f8 40e8 87fb 75bf d7a0 1591 5895 96bf
000007a0: 8b24 a251 f298 953f a84a 7176 066c aa3f
000007b0: c189 8c91 d166 8d3f 5c30 5a76 4a3e 753f
000007c0: bdf9 d87f 63e7 833f f975 fb79 0b1d a3bf
000007d0: fe36 db3a 9edc 43bf 171c cea9 29c5 9ebf
000007e0: cfc3 a0a7 88f6 85bf bf1c ecdc 3004 a03f
000007f0: 5617 c0d8 8646 833f 21fa 4b3b 3251 813f

b1 f8 [1, 16]
0.10610468687633544 0.10217528362413013 -0.02997592534144541 0.08384021501716817 -0.00863702682663988 0.2595458630819924 0.08389896650395874 0.5154909941795144
-0.025139051991002363 -0.006689670950024128 -0.08297341101370852 -0.002384567693916523 0.0019228024748770892 0.15964734084017312 0.07934007013327579 0.19943597834447935
00000000: f70f 1640 ad29 bb3f b30a a0cd 2828 ba3f
00000010: d70e 094c 02b2 9ebf cd9d 9665 8d76 b53f
00000020: 2c6e 0a1e 4ab0 81bf bbf3 6f40 669c d03f
00000030: e57d 4d15 677a b53f f745 2cf8 e67e e03f
00000040: 717d 9d38 0dbe 99bf e5bf 38df a066 7bbf
00000050: 4bcf bdd6 be3d b5bf 5ac4 5508 cd88 63bf
00000060: 1bce c26f d180 5f3f f2a4 e6f5 526f c43f
00000070: 9e19 7c7e a14f b43f 9c51 513e 1e87 c93f

W2 f8 [16, 16]
0.03527600427843154 0.007312822989158278 0.05335879967888877 0.021664568580489384 -0.03683833253387066 0.0013342096266867715 0.02021523666908118 -0.004375516761253721
0.0005649008011793498 0.029076749885511975 0.07116454808646563 -0.01188016109590513 -0.0177404147753296 0.01015872995879268 -0.06377489894993559 0.007021520955535827
0.02782659853508066 -0.012998689985483397 -0.03397112097962844 0.051711957092152254 -0.028231933534489755 0.0054691506110557606 -0.013787776022870173 0.02129120026904826
-0.04007665866711499 -0.025918077882609348 0.019785933347119634 0.012265450865847958 -0.021909539615266843 0.021682567143344603 0.003480236749924022 -0.020935347508422547
0.020823756331461447 -0.01949679895942668 3.249401472246227e-05 -0.025408578570967684 0.007320312943252853 -0.003341047413706352 0.0011606920913620014 -0.047210108685453285
0.0035816517649548013 0.00519260769766681 0.03571801406279968 0.013237005872478159 -0.0245287692644486 -0.002074894967314807 0.004591366138952507 0.0006623803953649054
0.022255073548620736 -0.03531780615424872 -0.013503293321014463 0.0381068665032994 -0.0012188656595992014 0.027090029999049515 0.012812224520084906 0.013733560442396146
0.008235338658743268 0.009670653021050931 -0.009575388129263555 -0.012655958474168337 -0.013723833653923278 -0.007301667687052082 -0.009401687448284334 -0.015421261072042482
-0.009401877335085015 -0.014599981086150291 0.008386392271940137 -0.02885995592440916 -0.020176434687053626 0.015979154817495896 0.006962960572970245 -0.0061519609882506425
-0.019527440922227437 0.0003215160496307762 0.025443216027242158 -0.038115429927578125 0.025457309155008604 -0.047753472966603115 -0.020072247339632036 -0.004552509116581652
0.046736973542195734 0.02064770005575891 0.005502571432009502 0.05986408168767998 -0.0033261463850611933 0.010569902671434697 -0.012020682597708242 -0.03231350323665884
-0.0020109536228198398 0.007850214675816657 -0.021130250356662373 -0.0008248094983288349 -0.03285546801821825 0.0022429238926190286 -0.032554053373222744 0.008868972344441315
0.027998591662091756 0.011861647668199374 -0.026430437195138715 0.007535561140238976 -0.014213379361707608 -0.0005459502651051514 0.0033852902741201792 0.004374747051652481
-0.0007540579762548866 -0.0026858467992580165 -0.03557596833468788 0.019720951557510052 -0.0017908286964690063 -0.020701258489028068 0.04559648473679727 0.01718142965637622
0.08649447061892526 -0.020153300491062464 -0.009000437679531997 0.11687437183010091 -0.0022720954835167774 -0.01394928736389792 -0.03487930026602187 0.011685007867537301
-0.0009755853107190313 -0.016109845033776663 -0.019057204776897405 -0.01655426166484461 -0.022838938271843297 0.02577047970245081 0.006731472435212142 -0.017276437881959216
0.002268633914877651 -0.0029438235128154237 0.03242645123063035 0.0038102658465597665 -0.03484479466570203 -0.004255490626061717 0.00035101132542477434 0.025571856851084856
0.012600828872892702 0.014363224055987323 0.000914869405246864 0.00782173635539762 0.010267918965322562 0.03135541933904329 -0.014086283291840357 -0.009006390988704623
0.029068342601022038 0.00035472091190016697 -0.010945096911848256 0.002227512551695211 0.013723777766710202 -0.036345490642498444 0.004800741807535229 -0.005252326736992957
-0.005355653391589166 -0.03691187046760842 -0.0192128728631122 0.017734665815206205 0.0063446531558133444 0.013293565085882423 -0.005942842754498953 -0.0016534395623726827
0.020176514986645237 0.00944527623324898 0.022033447650286468 0.0169693556158729 0.007532987302786516 -0.040672616501289206 -0.009821204320924565 -0.01733389213408627
0.011590166300110295 0.031145585047233415 -0.0695884162566242 0.025908952966228898 0.016959252916636264 -0.009422890730185892 0.01807190387566585 0.012473577552502701
0.03837374720662548 -0.05178789212826609 -0.00014109096813161352 -0.060867508666252575 -0.004085074209530604 -0.019870044024151972 0.01547305066165693 0.020963356190584273
0.032918978604899965 -0.05343623800086759 -0.01354465920597043 -0.00902042809356856 0.0029299838092571666 -0.021248927141751906 -0.018528036603241364 -0.013138816739485396
0.013852174479358045 -0.004276820233908684 0.02442936197171494 -0.030094985289230613 0.05584969890621545 0.0038955997292587723 -0.013860768479816092 0.0008398238441622161
0.009477948471581876 0.018826417409136553 -0.00016233866458535066 -0.02202439097166001 -0.0007096467996367641 0.018881679243573486 0.0050744567258706125 -0.010107819214634129
0.00904429469375083 -0.00583580099393644 -0.011486619762034531 0.05931716555666735 0.011937502049965316 0.0013331885200849344 0.006954902233217495 -0.01703679875992522
-0.02548523390107935 -0.023850372723648098 -0.012796008299684447 -0.017002252461749315 0.02342339802390098 -0.01942847306313269 0.013790074315351024 -0.03021739244269633
0.04899227354691921 0.030542753035851106 0.005627346183359612 0.007938768003731705 0.05186940570931514 0.0011782684843730932 0.020546641655973977 0.018673868519429145
-0.04196577840614468 0.017301918451544683 -0.017754993598009517 0.03334701570148383 0.028325979166170762 0.010283160191737034 -0.00405165752489432 -0.04729233333089775
0.051119413532200446 0.008554005717114075 0.004781969725141726 0.029881412929856327 0.012345242158265787 -0.03440276677039498 0.008798018563706706 -0.027651885304433483
0.012257080297520404 -0.04514769643496141 -0.014539669977587816 -0.0009675128025222254 -0.03536870133189247 0.04535548110782849 -0.0013322567539882718 -0.02195220467585183
00000000: 0a39 6b49 b20f a23f 9e27 47f9 0cf4 7d3f
00000010: 8d37 2637 d851 ab3f a3fe 2396 3c2f 963f
00000020: 4abd f152 79dc a2bf b1b2 9bad 14dc 553f
00000030: 1998 7f91 4db3 943f 9e6f 48d6 0fec 71bf
00000040: eae4 b73b bb82 423f 3638 54a7 4bc6 9d3f
00000050: 467e aafe d637 b23f e765 063b a054 88bf
00000060: 1b2d 1c15 8b2a 92bf 1b08 89a7 19ce 843f
00000070: 8fb1 4b41 8d53 b0bf 488d f42d 99c2 7c3f
00000080: 6a1a ab6a 937e 9c3f d027 07a3 0e9f 8abf
00000090: 965f 3bab a964 a1bf ffbf 0b59 fd79 aa3f
000000a0: 2b15 effc d4e8 9cbf d89f 2ef0 d166 763f
000000b0: fc88 d2f8 c33c 8cbf 1681 6443 5ccd 953f
000000c0: 34ce 9d84 ed84 a4bf bd21 86c3 448a 9abf
000000d0: 5d3c 9682 c342 943f ff51 b7f2 a01e 893f
000000e0: b8d1 7850 746f 96bf a190 1873 f433 963f
000000f0: dd8d bee0 9582 6c3f e82a 8463 1370 95bf
00000100: f2a9 b1a1 d252 953f de33 a107 f8f6 93bf
00000110: 1eed 29d8 4509 013f 0228 00d8 b404 9abf
00000120: f80c 018b e7fb 7d3f 2c46 0a2c af5e 6bbf
00000130: 2a17 aea4 4b04 533f 0173 b061 ec2b a8bf
00000140: a5ca 46a6 4457 6d3f 6a05 e103 d844 753f
00000150: d93a 8eac a149 a23f dad4 8dda 001c 8b3f
00000160: e62e 35d7 111e 99bf c43f dfc0 5eff 60bf
00000170: 067c 9276 65ce 723f 4777 5b11 73b4 453f
00000180: d5df 3eb4 08ca 963f 3e45 ccec 2c15 a2bf
00000190: 9fcd 9d59 9da7 8bbf 8df8 c442 be82 a33f
000001a0: a146 5b09 4bf8 53bf bd05 9323 7dbd 9b3f
000001b0: c214 6caa 4b3d 8a3f bc6e a947 5720 8c3f
000001c0: 03b1 af71 b0dd 803f 2ba9 a613 35ce 833f
000001d0: 9cbf e4d6 429c 83bf 7ffc f7fd 5deb 89bf
000001e0: c637 c1c5 3d1b 8cbf f31e c17e 5ae8 7dbf
000001f0: 99d5 f020 3141 83bf d470 bd9f 2e95 8fbf
00000200: fecb 669d 4a41 83bf 5f41 4c4a 98e6 8dbf
00000210: 34b6 5084 e22c 813f 82f6 6fdb 768d 9dbf
00000220: f7e9 859c 21a9 94bf 7f7a 6fed d65c 903f
00000230: 40a0 1b7f 3185 7c3f 6c4b 0374 cc32 79bf
00000240: b7ca 8a60 00ff 93bf c3ec 15eb 2412 353f
00000250: b4e0 f752 c90d 9a3f 631b 069a dd83 a3bf
00000260: 1148 0f19 7b11 9a3f 1bef 52a9 2473 a8bf
00000270: d115 86b7 d18d 94bf eacd 53dc a6a5 72bf
00000280: 2e68 c199 e8ed a73f 668d e8b1 ab24 953f
00000290: 8899 8245 dd89 763f 1079 1b42 81a6 ae3f
000002a0: a0ea 413e 6f3f 6bbf db9f 5d52 aca5 853f
000002b0: ece0 0fb5 4c9e 88bf 82c4 3d3f 658b a0bf
000002c0: 8fad 6681 4679 60bf 26c9 64fa c513 803f
000002d0: 7ddf f318 2ba3 95bf 186b 0ee9 0007 4bbf
000002e0: 5f1b 4491 6ed2 a0bf e1d6 8498 c05f 623f
000002f0: a632 2ec5 ecaa a0bf 9218 5951 e529 823f
00000300: c749 17ae a9ab 9c3f 6823 7e66 eb4a 883f
00000310: 8108 7d9d 9410 9bbf d827 78ca 9bdd 7e3f
00000320: f182 317c e71b 8dbf 11d3 5544 c3e3 41bf
00000330: 3559 79e0 77bb 6b3f 4aee 3d38 41eb 713f
00000340: 106a 742c 7fb5 48bf 49b1 4605 a100 66bf
00000350: 9dc2 0a69 0337 a2bf 7828 f1a7 ba31 943f
00000360: d5d8 c7ab 4757 5dbf c821 c9f0 b532 95bf
00000370: 96a3 8325 6c58 a73f 1501 e439 0298 913f
00000380: 82d6 976a 8024 b63f a3f2 0f1a 11a3 94bf
00000390: d6bf dd4b d26e 82bf 3436 c094 7aeb bd3f
000003a0: b168 71f9 ed9c 62bf 525b 3ea8 7191 8cbf
000003b0: f85c e61b b3db a1bf 2717 2835 4fee 873f
000003c0: dff2 8280 cdf7 4fbf 413a 4166 197f 90bf
000003d0: 996d 145d bb83 93bf f8f8 d6b1 99f3 90bf
000003e0: cfcc cf33 1763 97bf 1ad7 189e 9363 9a3f
000003f0: 2b1c 69df 7592 7b3f 430e c71e eab0 91bf
00000400: 1e66 128f ab95 623f 18c0 ce36 a51d 68bf
00000410: cd2d 1f27 339a a03f 2fba 66e6 b436 6f3f
00000420: 23d0 0c4b 2dd7 a1bf 30f2 1391 346e 71bf
00000430: 671d c929 fe00 373f 5b5d 7e43 822f 9a3f
00000440: 7be3 4a9f 76ce 893f ba47 af4c 776a 8d3f
00000450: 8d93 7b16 7bfa 4d3f 7e43 c1ae d704 803f
00000460: 9278 3bc1 5807 853f 2024 3a49 d10d a03f
00000470: bd33 7cf0 44d9 8cbf 9105 0356 f171 82bf
00000480: 3100 4873 17c4 9d3f d5e1 3fb7 3a3f 373f
00000490: e3b2 4d0a 626a 86bf 4f63 f3b1 6e3f 623f
000004a0: c817 7c45 361b 8c3f 3b4d 554b e09b a2bf
000004b0: 9e5d f550 f1a9 733f 933d 03b9 7683 75bf
000004c0: 803e a642 cfef 75bf a931 fcd8 1ce6 a2bf
000004d0: 34e5 6f12 8aac 93bf bc29 ba46 0929 923f
000004e0: 055c f0dc d9fc 793f c232 541a a839 8b3f
000004f0: f0da 69b4 8557 78bf 00d5 2936 0717 5bbf
00000500: ae40 0f00 27a9 943f c11b 3084 0b58 833f
00000510: 5eef 4da4 ef8f 963f a812 9e2d 6a60 913f
00000520: 08d8 b4e1 e8da 7e3f a57b 6e8b 0ad3 a4bf
00000530: b0f6 ecba 231d 84bf d32b 50cf f9bf 91bf
00000540: 67a1 b6c9 95bc 873f 2047 c5d4 a0e4 9f3f
00000550: bbac 00e4 8bd0 b1bf 0b7b a766 e087 9a3f
00000560: 45f1 9032 c45d 913f 0bd1 28fc 4e4c 83bf
00000570: 0961 7df0 7081 923f 138a 373d bf8b 893f
00000580: 040b 8e4a b9a5 a33f 5313 0a4e f183 aabf
00000590: 12dc 1130 3a7e 22bf 319a 38ae 062a afbf
000005a0: da4e 1bc2 82bb 70bf 8be7 0315 d058 94bf
000005b0: 7a45 7db4 55b0 8f3f 9407 0305 6b77 953f
000005c0: 9a31 0da1 c1da a03f 8d1e 459d fe5b abbf
000005d0: 65d2 9962 4dbd 8bbf dc2a 435d 4d79 82bf
000005e0: 5328 6f14 9f00 683f 2d7c 985c 47c2 95bf
000005f0: 2e7e 147d 03f9 92bf d541 a221 86e8 8abf
00000600: fe49 f062 875e 8c3f bf71 9130 9284 71bf
00000610: 9832 ecba 0204 993f e306 5d46 38d1 9ebf
00000620: 4a58 96ec 5498 ac3f d364 ef2d aae9 6f3f
00000630: 3cc0 8bda 0863 8cbf 834e f8f8 f384 4b3f
00000640: 73ba bfb5 2c69 833f 33d7 4a7c 3b47 933f
00000650: 18cd b282 2e47 25bf 8919 c0db 8f8d 96bf
00000660: 5e46 e8e5 f240 47bf b2fb 600b b855 933f
00000670: 99da eb1a f4c8 743f 4d95 af87 68b3 84bf
00000680: 997e 66af d085 823f 8584 a3e6 47e7 77bf
00000690: a596 c101 4c86 87bf 238a 50cc d15e ae3f
000006a0: 2a4b 3467 b072 883f 8974 f645 ccd7 553f
000006b0: 8a7c 375a be7c 7c3f 5678 0236 1872 91bf
000006c0: b94f 8b18 cd18 9abf 41c5 616b 3b6c 98bf
000006d0: 53f8 5429 cb34 8abf 544e 20d9 0969 91bf
000006e0: d137 e5a1 4dfc 973f 8763 abc1 0ee5 93bf
000006f0: 29fd 8c71 f83d 8c3f cf42 3fe1 4ef1 9ebf
00000700: 580a 48e9 8315 a93f 08d6 ac75 9946 9f3f
00000710: 22ff 213d b30c 773f 768d 9267 3342 803f
00000720: 1872 5e72 a08e aa3f 3f74 cd26 044e 533f
00000730: e1f5 d1c7 2d0a 953f afb0 521a 3e1f 933f
00000740: 4074 9cdb 897c a5bf d638 a117 98b7 913f
00000750: 4d66 6073 5d2e 92bf 15d2 b62b dc12 a13f
00000760: c561 9548 7c01 9d3f 03c9 c865 560f 853f
00000770: ed32 0689 7898 70bf 0df6 0362 b336 a8bf
00000780: 077d 9fe2 522c aa3f 053c 7036 c384 813f
00000790: 4575 4739 4296 733f 3803 2bad 3b99 9e3f
000007a0: 2bca a55a 7648 893f 1d6e 574c 3d9d a1bf
000007b0: 1d7a 0110 b204 823f 959c 389c c650 9cbf
000007c0: 92a9 2d78 3d1a 893f 0f15 5b4f 991d a7bf
000007d0: 3d11 6378 f9c6 8dbf 3b9a 32ec 15b4 4fbf
000007e0: 2981 0baf d81b a2bf 3fdd 1a68 d538 a73f
000007f0: a15d 0ccc e3d3 55bf caab a184 a37a 96bf

b2 f8 [1, 16]
0.623997236745823 -0.014119881689159725 0.011529634679407944 0.5932408020299895 -0.06986760777438888 -0.07502453232192974 0.004767478439824545 0.0006621789542707599
-0.015417987451664977 -0.05624431952662783 0.0061059796767544226 0.009834566489718814 -0.03428323631882502 0.22360016407327285 -0.005775762230792113 0.017227487211213255
00000000: 07c4 930d c9f7 e33f 9d6b a070 e2ea 8cbf
00000010: c825 105f d99c 873f 46e4 6b22 d4fb e23f
00000020: 5cd5 70f2 d7e2 b1bf 086b b8c8 ce34 b3bf
00000030: b222 bc3f 1087 733f 08d3 f179 c2b2 453f
00000040: b014 003f 7793 8fbf 87c0 e731 0ecc acbf
00000050: 0ae3 5870 9502 793f 02a8 8c2b 2524 843f
00000060: 60ae 9485 928d a1bf ab97 0920 ee9e cc3f
00000070: f267 405e 53a8 77bf 805d a818 15a4 913f

W3 f8 [16, 1]
0.21963864424169094 -0.032602257571535564 0.008762756390434475 0.22220329614708814 -0.03247847840926988 -0.030060343208186905 -0.02005476601360927 6.218207269975158e-05
-0.01404156065572139 -0.04270606587806538 -0.01915955559404253 0.0042032628495193985 -0.04431568705581885 0.09221456450400398 0.004230557639688887 0.026467596758271948
00000000: 0259 fa7c 1e1d cc3f 904d 173c 3eb1 a0bf
00000010: 9135 f540 35f2 813f 51f0 0159 2871 cc3f
00000020: 91ed 2ee5 04a1 a0bf f15a f17b 23c8 9ebf
00000030: 4d29 a190 3c89 94bf 7cee e3df f74c 103f
00000040: 89b3 685e d2c1 8cbf 6300 93c8 91dd a5bf
00000050: 8fae ba02 909e 93bf d053 9ac7 7037 713f
00000060: a982 35b5 8bb0 a6bf ce73 c2aa 5f9b b73f
00000070: 4708 4dab 0f54 713f 8606 ec59 521a 9b3f

b3 f8 [1, 1]
1.3975638631648843
00000000: 64d5 e5ec 6b5c f63f
