best_model_weights_e10.npz (npz, 7056 bytes, 8 tensors)

W0 f8 [8, 16]
000000 ab 37 5c 81 20 61 89 3f 4c 76 6a 26 f6 16 63 bf
       0.012392286250839954 -0.0023302848451994037
000010 f5 73 b5 38 14 13 75 3f 4a 53 e8 bf 3c 93 91 bf
       0.005145148268039347 -0.01716322823820641
000020 1c 4f 52 f9 04 48 73 3f f1 3a 58 4b 56 4e 98 bf
       0.004707354955048062 -0.023736332272217223
000030 30 23 b5 6a 13 56 81 bf a9 01 b3 16 48 75 96 bf
       -0.008464957899052189 -0.021931768784953985
000040 1e 46 f0 2c 71 f8 19 3f 6b 7b fc 89 6f 63 82 bf
       9.906950730023025e-05 -0.00897872104502336
000050 28 c3 ba 6c 57 28 7f 3f 31 3a c7 4c cf a3 80 3f
       0.00760683203013527 0.008124942331872638
000060 a4 f5 6c b7 eb b6 8f 3f 93 19 5f 99 d3 a6 91 3f
       0.01548561242600039 0.017237955318500985
000070 a9 da d5 4a 57 6f 6c bf 05 83 4a 87 48 ae 71 bf
       -0.0034710602691874937 -0.004316600145700238
000080 b5 9f 88 7e b5 66 86 3f 5e 73 62 98 ad e5 84 3f
       0.01093808929824989 0.010203701222332103
000090 c8 36 09 01 ac 3f 86 bf d3 ca 05 08 35 4d 92 bf
       -0.010863631993881198 -0.0178726469179747
0000a0 f1 19 2b bd 9b a3 73 bf 4a 38 1d 72 db d8 54 bf
       -0.004794700961332486 -0.0012724059128746018
0000b0 dd d8 92 31 0c b8 62 bf 6a 12 fe e4 1a 83 56 bf
       -0.002285026374546735 -0.001374031318818992
0000c0 38 66 8e 43 30 d0 7e bf ec 9d 0d f8 be 1c 7a bf
       -0.007522762804819609 -0.0063750705456650895
0000d0 7b c0 45 43 35 30 6a 3f fb 56 0e 2c ae 7c 59 3f
       0.003196815518258287 0.0015556050204614247
0000e0 3f f1 f9 25 08 2c 20 3f 08 e2 7d 62 f7 16 90 bf
       0.00012338256327727203 -0.015712609659631865
0000f0 1b de be 11 7c f5 20 3f a4 34 f1 95 78 60 77 bf
       0.00012938632505464582 -0.005707236326157137
000100 26 67 62 c8 a3 4a 61 3f 87 0b 82 6f 1d ab 69 bf
       0.002110786331354658 -0.0031333517945894593
000110 b7 0d 08 90 d9 04 92 bf 0b b6 b9 88 4f 38 6b 3f
       -0.017596625724775907 0.003322749462134627
000120 f3 0a ef ad 9a 29 6f bf f0 3a 89 1a 58 73 86 bf
       -0.003804018123873981 -0.010962189016166829
000130 cc d9 26 67 59 9e 7b bf f8 cf 59 df df 5b 8a 3f
       -0.00674281046888443 0.012870549205423729
000140 e1 17 4b 65 f0 49 85 3f 98 1b 2b 70 f9 74 6b bf
       0.010394933787562568 -0.003351676162626171
000150 69 a7 58 13 72 bc 72 3f d0 d1 b7 94 87 a8 85 3f
       0.004574246986104182 0.010575350976957859
000160 45 95 1a c7 06 b0 70 bf 44 0c cf 88 84 c6 83 3f
       -0.004074121928771495 0.009655986237595234
000170 37 a6 d7 4b 2a bd 7b 3f 1e 66 9a f0 d9 c5 73 bf
       0.006772198886645201 -0.004827357604563013
000180 25 eb be 16 ec b2 6a bf 0e 13 05 57 4d 15 73 bf
       -0.0032591448889126733 -0.004658987149302586
000190 ad 0f d7 66 d9 40 75 3f 6d 5f 53 85 15 d8 72 3f
       0.005188798165764935 0.004600605073583936
0001a0 0c f8 7a 23 a0 d1 5c bf ba 61 22 8d ac 22 4e 3f
       -0.001758962998720917 0.0009196608100579464
0001b0 da b7 ea c7 df c5 67 bf b1 28 79 16 80 ae 89 3f
       -0.002901970932120951 0.01253986424048423
0001c0 bc 0c 4b ae e5 2c 5f 3f 86 09 84 67 c1 c2 8b 3f
       0.0019027941681748891 0.01355506035952626
0001d0 e5 d7 8d ed 8c 41 60 bf 6d 6d 2b 83 ee 04 42 bf
       -0.00198438191403748 -0.0005499043093907648
0001e0 cd d1 93 e2 45 5d 78 3f 5b 80 20 81 ed ca 86 bf
       0.0059483270535917844 -0.011129241469518705
0001f0 59 2f 13 f1 bc 9d 63 3f 02 34 64 07 82 4c 81 bf
       0.002394551302677 -0.008446708536689943
000200 4f d5 bb b6 7c 04 6c 3f c7 16 f0 75 15 98 7a 3f
       0.0034201083961941446 0.0064926946934115775
000210 34 e9 1f 3c bc 38 70 3f 38 1b 9a 1d e3 93 33 bf
       0.003960356991223702 -0.00029873175444843384
000220 9b ee 11 07 3a 61 8c 3f 8d 28 9a 1f 7a a0 7b bf
       0.013857320156822886 -0.006744839710913675
000230 ef 2e 91 f8 72 b4 87 bf ba 1a 6a e3 15 74 4c bf
       -0.011574648104349687 -0.0008683306576394358
000240 69 a7 cb 58 60 ef 64 3f f9 87 71 22 20 65 7f bf
       0.0025555497908173364 -0.007664800191465198
000250 25 e9 1b 2c 92 4a 31 bf c0 72 60 5f 70 8f 78 bf
       -0.00026384419116677805 -0.005996169047673916
000260 b0 97 5f 52 c6 3a 90 bf 97 36 48 d7 8f 6d 81 3f
       -0.01584920766608605 0.008509753949535166
000270 ae 8c d4 72 e9 5e 78 3f 55 dd 7e f8 a5 19 90 bf
       0.005949890049382107 -0.015722840587583182
000280 94 27 38 3b a0 c4 81 bf 5c f1 d0 6c f8 41 95 bf
       -0.008675815398436794 -0.020759469644177173
000290 30 71 4f 9a 14 2b 87 bf 83 bb 1c 0e 86 f3 71 3f
       -0.011312638243844292 0.0043826328781467775
0002a0 d4 6f ec 0f 36 ab 69 bf f1 0c 7a 9a 11 b4 5e 3f
       -0.003133397665250096 0.0018739864262052287
0002b0 b3 87 c7 42 64 b2 73 3f 8d 4f 0d 61 14 81 41 bf
       0.004808799404118535 -0.0005341863162393476
0002c0 f6 76 51 f8 6e 83 e1 3e 47 71 c7 fa 75 cb 68 bf
       8.351045616968277e-06 -0.0030267051972555944
0002d0 8b 86 ee 68 b1 d3 6d bf 11 a6 04 d8 9c 1f 8a bf
       -0.0036409821545511692 -0.012755608885146182
0002e0 ca 0e ec 24 93 19 80 3f 6b 1d e1 e6 00 4c 99 3f
       0.007861280025742618 0.024703992931134715
0002f0 7f 06 df 41 14 06 77 bf f6 6f 80 85 c2 e8 63 bf
       -0.005621031885256421 -0.0024303244827148475
000300 ea 6a 3d 8f ad 72 77 3f ea 16 ca 0c 38 72 83 bf
       0.005724599806707012 -0.009495199098874935
000310 b7 fd 31 27 6d ac 61 bf 90 8b ca c0 07 90 5d 3f
       -0.0021574146172153824 0.0018043590272689182
000320 c9 d9 76 b8 cf 76 71 3f 64 15 2f 2e bf 88 6f bf
       0.004263698013736003 -0.0038493856422713735
000330 07 f4 8b 2a 5d 13 83 bf 88 39 ad 86 d2 aa 4a 3f
       -0.009314277516290671 0.0008138206443193833
000340 96 91 58 ab 9d 3c 82 bf f1 55 15 9f 0a ae 7b 3f
       -0.00890467814594657 0.006757775773924988
000350 b9 fe ec 45 17 e3 90 bf 43 e7 dd 70 3c 27 67 bf
       -0.016491283076219363 -0.0028263264165930015
000360 82 c6 2c ca 23 d5 7b bf bb d4 1f 19 c0 71 87 bf
       -0.0067950628315870416 -0.011447430388196947
000370 1a b1 d9 85 ea 55 85 bf b0 e4 8e 50 34 45 60 3f
       -0.010417778215206886 0.001986124207601657
000380 b8 34 69 f9 66 4f 88 bf 31 84 44 43 e9 b8 91 3f
       -0.011870197760027387 0.017306942682925267
000390 1e f5 42 2c b4 54 8a bf 8a a7 b0 9f f5 c8 63 bf
       -0.012856872177844422 -0.0024151608791002687
0003a0 14 f7 02 b2 25 70 82 bf 8c a7 94 31 99 75 4d bf
       -0.009002966399176006 -0.0008990285888661339
0003b0 b4 48 10 51 e8 a2 65 3f 18 4d 14 3a 80 63 49 3f
       0.0026411569056189136 0.0007748008830809365
0003c0 0f 43 9c 4d 59 ed 8c 3f f7 e5 c2 ff 0f ee 88 3f
       0.01412458198640956 0.012172818176952467
0003d0 24 97 de f6 8a 12 6f 3f e6 c0 4f b9 25 8c 7c bf
       0.0037930215975902227 -0.0069695924366756975
0003e0 81 5b e3 e0 ab d8 81 3f 28 1a 92 d2 c7 69 77 3f
       0.008714049149075144 0.005716114575199195
0003f0 63 a0 d0 6a ab e5 93 bf bf d1 da 92 71 48 61 bf
       -0.019430807489840506 -0.002109739135301519

b0 f8 [1, 16]
000000 56 2b a3 69 af c6 66 3f b4 c3 43 8a f3 aa a9 bf
       0.0027802873638384335 -0.05013238013078283
000010 aa 34 7f 95 f5 84 b4 3f 60 71 9f 18 dc 53 ce 3f
       0.0801537981016788 0.23693419649397196
000020 a7 a5 e9 e4 e1 3b c8 bf a1 83 59 f6 e8 c0 9f 3f
       -0.189327465795299 0.031009330783834724
000030 2a 25 ac 4c 32 59 80 bf 83 5a 60 a3 3e c5 c9 3f
       -0.007982628788811914 0.2013319299446331
000040 39 cc d1 5b fa 9b a1 3f 1a 02 a0 c3 e4 07 b7 3f
       0.03439314242213993 0.08996419692994842
000050 0a 25 aa 1e 7a bd 8d bf 4a fb 18 87 a7 7e 99 3f
       -0.014521555004892512 0.024897210713102504
000060 59 49 c5 88 82 87 c0 3f 10 e7 2c 3f 85 2a d2 3f
       0.12913543394331375 0.28384524507019737
000070 64 5b 48 b4 40 fc 5c 3f 79 f4 92 6d f3 3a 76 3f
       0.0017691261174428092 0.005427313700406272

W1 f8 [16, 16]
000000 42 1c 77 2d d2 af 8a 3f 0a fb 8d b6 8d 8f 64 3f
       0.013030664455881195 0.002509857924848706
000010 a8 a9 fa 52 fa 82 68 bf bf 9e 56 4d 31 ac 78 bf
       -0.0029921425956065013 -0.006023590647067755
000020 ec b7 f2 d6 5c 37 8c bf 2f b5 42 ff 30 31 7a 3f
       -0.013777470884033215 0.006394568819968512
000030 89 05 0a b8 1e 95 35 bf 8b 8c 32 63 72 ae 76 3f
       -0.0003293228146859719 0.0055374592076616975
000040 11 b9 9b f1 29 93 7a 3f 78 d4 80 d3 e9 18 62 bf
       0.006488002627277349 -0.00220914525200527
000050 3b f2 a9 74 57 c0 66 bf 68 3b dd 6d 82 2e 89 bf
       -0.002777262508344228 -0.012295741060055668
000060 58 a1 06 05 7b b5 7a 3f 21 ea 94 57 32 eb 78 3f
       0.006520729585112704 0.00608367600335183
000070 19 37 80 19 04 08 90 3f fa 58 5b f0 a1 9d 76 bf
       0.015655578667114065 -0.005521423887065996
000080 07 a8 3d e9 26 40 71 3f e2 1d f0 88 7b 1c 7c bf
       0.004211570736382348 -0.006863100584275613
000090 62 b8 cf 05 13 4d 83 bf 3e 77 5f b4 80 cb 6e 3f
       -0.009424351324892114 0.0037591470490800074
0000a0 f6 8c de 62 c7 ad 70 3f df a9 3c 59 bb 2e 89 bf
       0.004071978428245906 -0.012296165142818559
0000b0 dd 40 17 c5 fc b2 42 bf ff cf ef 95 40 5d 50 bf
       -0.0005706533649405783 -0.0009987955779680033
0000c0 6c 31 cf d6 e8 20 91 bf 4c f3 e3 84 96 2e 94 3f
       -0.016727102385446654 0.019708968983638983
0000d0 07 23 63 6f ae 71 6e bf 38 f7 b9 85 51 97 56 bf
       -0.0037163168845818525 -0.0013788505665667927
0000e0 05 04 86 ad 27 d0 2f bf 64 fa ca 66 4d b6 6f 3f
       -0.00024271473263229329 0.0038711082218861204
0000f0 bc 29 94 15 a4 67 83 bf 75 0d 90 28 35 1d 7c 3f
       -0.009475023182422208 0.006863792085826649
000100 88 5f dd 4e f2 51 7d 3f ef 95 29 cd 10 82 49 3f
       0.00715822841251413 0.0007784444845355102
000110 e7 6e af 33 ef 93 82 3f e4 a9 f9 c6 df 3f 72 bf
       0.009071224942025903 -0.004455446367141101
000120 66 91 c2 c1 55 4b 7e bf e5 96 22 b0 e0 c1 5d bf
       -0.007396063792985385 -0.0018162435740491309
000130 f2 d2 16 28 fa 3a 8d bf 63 36 47 de a4 24 86 bf
       -0.014272646282600363 -0.010812080415145425
000140 48 dc f2 08 5e 3c 67 bf ed 71 c6 64 d2 d3 8d 3f
       -0.002836402570746386 0.014564174366392424
000150 75 65 52 a8 c7 10 70 3f 3b 20 c5 06 7b b7 79 bf
       0.003922252571237341 -0.006278496334125856
000160 59 75 63 6b a6 63 75 3f a4 32 fa aa 5e 18 6f 3f
       0.005221986843222248 0.0037958001119647467
000170 d1 ef fe a2 b2 27 70 bf a0 94 9f 1b 09 11 81 bf
       -0.003944108771914715 -0.008333274035928817
000180 ca 8b 93 16 e2 f5 83 bf 91 dc a6 15 a1 4f 86 bf
       -0.009746328653312281 -0.010894068215618698
000190 21 85 f4 63 26 01 7e bf f0 52 0c 9f 70 78 8e bf
       -0.00732531543988671 -0.014878158429874472
0001a0 33 80 5e 55 a6 cd 65 bf 12 7c 9d 2e 41 51 5f 3f
       -0.002661538000168684 0.0019114624542095932
0001b0 19 5b f8 ea 8d 98 85 bf d9 06 b6 f0 92 47 70 3f
       -0.010544880612582784 0.003974508271655097
0001c0 72 45 61 3a 1a ed 6b bf 4e d4 fd 90 80 7a 72 3f
       -0.003408957697538178 0.004511358463664085
0001d0 29 a4 28 08 f4 52 43 bf e8 9b 53 d1 ea 95 60 3f
       -0.0005897227823129558 0.002024611118588638
0001e0 ce 23 3d 49 c5 f9 85 bf f0 7b 5b 08 ac 34 46 3f
       -0.010730305955478327 0.0006776657107500066
0001f0 12 98 73 de 64 e7 8a 3f 7d a4 e6 73 a7 bd 69 3f
       0.01313666156643126 0.003142191940430693
000200 16 7e ce 4e 47 1c 76 bf ff 4b 00 d7 5c 76 64 bf
       -0.005398062273257695 -0.0024978459623610223
000210 06 37 db 9a a2 a5 76 bf b9 e2 5b 66 07 62 77 3f
       -0.005529055762691254 0.005708722024558349
000220 b1 e2 08 64 38 15 79 3f 3f 7f 35 30 a0 99 56 bf
       0.006123752857597851 -0.0013794006670976992
000230 37 1f b9 10 06 30 6c bf 0c 4d ef f0 4a d2 79 3f
       -0.003440868231141449 0.0063040664089897384
000240 42 08 db 67 1e 20 60 3f 29 d3 3a 45 00 46 6c 3f
       0.0019684404240658824 0.0034513478547871968
000250 40 4e 28 f9 c9 71 80 3f 6a d2 f7 85 73 29 71 3f
       0.008029535213643801 0.0041899216298487505
000260 c9 d4 e0 cb 81 15 88 bf d5 bf 5e a7 83 b3 91 3f
       -0.011759771379823996 0.017286355104886148
000270 43 c1 9c 9a 0e 9f 5e bf 78 46 a7 b2 86 56 2e 3f
       -0.0018689768425695509 0.00023146051655813563
000280 16 49 0a 43 4f af 63 bf f2 87 03 2a 83 f2 61 bf
       -0.0024029300769338275 -0.0021908342169902834
000290 ff de 6e fa 88 0d 4f 3f 8a a8 10 1b 17 73 84 3f
       0.0009476584281093713 0.009985142243824425
0002a0 a0 cd 92 f3 1b 09 85 3f b6 cb c7 d6 57 6b 70 3f
       0.010271280642291825 0.004008620377578367
0002b0 9d ab 18 58 d4 46 50 3f 65 f2 e7 66 d9 a9 37 3f
       0.0009934495614156498 0.00036107595124671425
0002c0 4f 06 50 a9 1f 64 74 bf d7 0a 72 f5 3d 72 7e 3f
       -0.004978297879462425 0.007433168436480306
0002d0 9d 79 ef 4b 71 02 41 bf 8d 1e 74 92 dd a3 7b 3f
       -0.0005190900045553452 0.006748071208910422
0002e0 19 b8 d5 4e 1b 5b 7c bf 0b a1 cf 9d 10 71 7e 3f
       -0.006922823592828941 0.007432045848851719
0002f0 a7 95 eb 5a 00 c4 72 bf ee a7 e3 2a a0 d0 68 3f
       -0.0045814527390794285 0.0030291679641907187
000300 56 70 ec 03 72 95 75 3f 9a 48 2e 8d 49 24 75 bf
       0.005269475338334292 -0.005161559401033378
000310 e7 ea 42 3e 5b a7 7c 3f 77 21 77 57 1c 34 53 bf
       0.006995541018279572 -0.001172092130092476
000320 b0 a2 5a 0a 88 d0 73 bf 68 d3 b8 66 63 a6 7f bf
       -0.004837542922964275 -0.007727039610064469
000330 ef 8e 69 1b 5a 5b 7b 3f a1 f2 15 43 73 f1 6a bf
       0.006678916912821838 -0.003288960572432068
000340 50 00 14 6e 6a 1a 71 bf e8 96 ec 01 9b 3b 61 3f
       -0.004175582639845812 0.00210361742883235
000350 34 cd ba d3 e6 c0 8b 3f 95 1f 19 d1 bc d2 8a bf
       0.0135515244831824 -0.013097262507599608
000360 01 7c 87 db d3 92 61 bf 13 09 66 27 a0 a0 75 bf
       -0.0021452081530095595 -0.005280137635397491
000370 b4 f5 69 26 de 70 70 3f 22 15 1c c2 7f 07 63 3f
       0.004013889096879653 0.0023229117658753054
000380 75 fe 94 cb 5a 88 5a 3f 80 6f b1 16 74 39 70 3f
       0.0016194235489165574 0.003961041899937956
000390 4f 3e c5 77 3f e5 6e 3f e8 7f ef d5 96 45 81 bf
       0.0037714233023178677 -0.008433512119097444
0003a0 b9 fe e6 d4 9c 36 6d 3f c0 cc e3 75 a7 77 86 bf
       0.003566080390754536 -0.010970409665310377
0003b0 b1 c5 ec 61 e2 29 26 bf c5 2c 62 a3 ec 9b 80 bf
       -0.0001690949292992134 -0.008109902130192368
0003c0 cd d9 fe b9 1c 56 69 3f 7d ef 14 5e a3 da 60 3f
       0.0030928193154651008 0.0020573797961826444
0003d0 fe d0 a9 6a b3 d4 78 bf 9a c4 8f da 12 30 75 bf
       -0.006062222334197507 -0.005172799727902655
0003e0 75 43 09 83 e8 22 84 bf 95 8f 84 03 a2 de 70 bf
       -0.00983220720186904 -0.004118569246461497
0003f0 20 bc d5 e6 9e be f5 3e 28 ff 3a 60 5c 9f 67 3f
       2.0737278125290107e-05 0.0028836063591767443
000400 7e 22 2f 62 b9 27 72 bf f6 24 c3 e8 6e a8 84 bf
       -0.004432415155812051 -0.010086885908452175
000410 61 24 79 10 94 2f 52 bf b4 ca 44 14 90 71 67 3f
       -0.0011099763813880103 0.0028617681547527755
000420 d5 0e bf db cd 2a 6d 3f 90 b7 23 b5 8d b0 49 bf
       0.0035604496642650343 -0.0007839862758183148
000430 f6 6c c6 1c 74 8f 54 3f bd ec a2 4a f1 d1 7d 3f
       0.0012549051199133832 0.007280294938193763
000440 7d c9 9a 03 93 43 5b 3f fb 22 dd b0 a1 44 61 3f
       0.001664060181081866 0.00210792141198046
000450 ac 39 cc 33 76 06 8c 3e 77 38 5e 03 b5 e5 86 bf
       2.0880431774628283e-07 -0.011180318990025235
000460 5a e3 36 06 06 11 75 bf 9f 0b bc 16 70 e5 79 bf
       -0.005143188030552215 -0.006322324606801737
000470 ea 64 ec e9 18 6c 67 bf cc b0 36 96 14 98 74 bf
       -0.0028591620060863703 -0.005027847687795805
000480 e2 09 8b 2b f0 bf 8e bf b8 90 b5 14 c2 94 78 bf
       -0.015014530495482018 -0.006001241806505124
000490 d1 2d 3b cc c8 e6 90 3f 07 89 11 be fb 22 66 3f
       0.016505372491151086 0.002702228245241692
0004a0 a1 80 c7 22 cf 0b 75 bf 15 e7 c9 f6 cb 48 38 bf
       -0.00513821518367777 -0.00037054996099748885
0004b0 7b f7 40 f9 f3 27 81 bf fb 70 9f 29 01 72 82 bf
       -0.008376985592004385 -0.009006508906104651
0004c0 b0 fb ee fe bb 6f 84 3f 96 f4 b1 a2 05 cc 74 bf
       0.009978741376355987 -0.005077383054524228
0004d0 e9 18 cc 8a bf 19 5e 3f 83 4e b4 cc 4c 5c 7c bf
       0.0018371935395307632 -0.006923961638012013
0004e0 00 ab a2 26 b3 88 71 bf 96 b0 3c 4a 06 7d 78 bf
       -0.004280757721214057 -0.005978607721584114
0004f0 df 32 b5 ad 3e b8 76 bf 89 47 ac d2 13 78 7d 3f
       -0.005546803319998544 0.007194592889179571
000500 15 71 5b ba 54 a9 92 bf af 0a 00 bb 82 69 79 bf
       -0.01822407138284728 -0.006204138437171976
000510 f2 33 ad 66 99 54 75 3f 07 17 df 7a fb a3 55 3f
       0.005207633231134589 0.0013208347186134965
000520 99 c5 e5 4f b6 22 92 bf d1 73 ec df 18 d7 78 bf
       -0.017710541369017816 -0.006064507643512366
000530 92 97 2f f0 c7 68 71 bf cb d6 27 6f 47 09 73 bf
       -0.004250317581840595 -0.004647521056986024
000540 ff d5 58 41 65 53 5c bf 9d c2 34 01 d4 95 5e bf
       -0.0017288674183765227 -0.0018667765005596978
000550 98 ab 05 e6 22 e6 81 3f 84 2b 82 b6 1b 6d 6e 3f
       0.008739731449812813 0.003714136244587109
000560 ad bf f9 bf ae 21 84 3f 1b 7b ad 44 ee fb 82 bf
       0.009829869493131438 -0.00926958224380097
000570 b6 d8 c6 f5 5c 33 86 bf a8 ea 7a 6b dd 39 68 bf
       -0.01084015488673305 -0.0029572796446165235
000580 92 23 06 b1 57 5c 63 bf a4 83 ac 6a b0 e6 8b 3f
       -0.0023633682942016477 0.013623598342350558
000590 2a 2f 9a 62 13 92 84 bf 00 a1 b4 e9 58 72 81 3f
       -0.01004424233112607 0.00851888144696078
0005a0 0f 62 29 5f ca 38 80 3f 91 09 ac 4a 5c f3 7d 3f
       0.007920819310286679 0.007312164797215096
0005b0 75 9d 55 8c 6f 78 69 3f 07 e2 13 00 3a a1 80 bf
       0.003109186046163332 -0.00812001526581786
0005c0 84 7c 97 5e bb 12 81 bf d6 7e c6 dc fd 2e 56 3f
       -0.008336509536944321 0.0013539771199261772
0005d0 02 84 ff 9f 1e 34 4d 3f 5a 0c 3c 7f dc 0f 76 3f
       0.000891222909555123 0.005386220280118337
0005e0 80 05 20 da 8d 00 31 3f ea de 04 26 22 d5 85 bf
       0.00025943244156686335 -0.010660425935028656
0005f0 ef b3 46 82 e9 91 55 bf 33 3d 84 fd b8 e7 80 3f
       -0.001316526447321605 0.008254475819312468
000600 ca 1b 61 2e 8c e3 75 3f a8 93 c4 b0 71 c3 5b 3f
       0.005343959410374086 0.0016945467242035304
000610 ca 42 7a 17 a8 9b 82 3f 54 45 4d b5 ba 99 5d 3f
       0.009085953918913776 0.001806671459423666
000620 57 f5 b3 ec 8b 74 8a 3f 05 ee 4e df ea 70 67 3f
       0.012917607461072107 0.002861460432965537
000630 36 54 96 ee 58 83 71 bf 82 fd 23 cf fe c0 6a bf
       -0.004275653257896519 -0.0032658554783890357
000640 2d 51 2b aa 74 dc 4c 3f dc 20 38 2f 95 97 44 3f
       0.0008807725574464846 0.0006284216346452948
000650 e6 88 aa c4 2d c1 89 bf 7e 59 57 74 c7 55 72 bf
       -0.012575490535998001 -0.00447633659265134
000660 4a 3e 9d 64 ef 1a 88 3f 11 c2 90 37 d8 d9 87 3f
       0.011770124681475331 0.01164597434589701
000670 a1 88 e4 6b 16 72 7c 3f 27 91 ad eb be a4 80 3f
       0.006944739898502445 0.008126727645227106
000680 23 6c da ef 1a ac 86 bf a0 7c 96 cc 5c 06 1c bf
       -0.011070452160586502 -0.00010690633202735606
000690 d6 d4 aa cd 55 de 64 bf 03 37 84 71 3a 35 81 3f
       -0.0025474239203854094 0.008402306164977618
0006a0 fe 93 0b a6 23 63 88 bf 08 de 70 00 cc d2 81 3f
       -0.011907843117521463 0.008702844394163925
0006b0 3f b9 d1 55 77 f9 6f bf b9 b8 f5 b5 bb 2e 44 3f
       -0.0039031344190824375 0.0006159225994631013
0006c0 25 14 81 13 4f c1 72 3f 9e 1d fa 09 35 9b 77 3f
       0.004578884974823648 0.005763251479613455
0006d0 14 e7 78 97 2e 9f 7a 3f 11 f8 34 ec dd ce 6b 3f
       0.006499464033874042 0.0033945402552992905
0006e0 28 44 4e a6 b9 36 92 3f d2 2d 6d b9 86 b8 7c bf
       0.017786885047432005 -0.007011915461429168
0006f0 f7 02 da 8a ef d9 8c 3f 92 fc f0 5e 7c da 88 bf
       0.014087554383196628 -0.012135478637104211
000700 09 0f 95 a7 a5 ca 77 bf 34 f4 e2 53 5d ff 78 bf
       -0.00580849369845616 -0.006102909623391151
000710 2a 88 e8 88 fe 5c 57 bf 95 f1 34 01 5e ea 61 bf
       -0.0014259801570308908 -0.0021869503049442665
000720 fd 01 c1 44 04 c3 75 bf ab 9d 6f ec f6 9f 5b bf
       -0.0053129355183618695 -0.0016860877383296595
000730 7c 90 96 dd 42 db 6b 3f 47 7d c4 07 bb fa 6a 3f
       0.0034004503219922638 0.0032933857857099544
000740 95 e6 4b bd 53 88 70 3f 28 87 51 5a c8 03 67 bf
       0.004036261660752456 -0.0028094208851578047
000750 65 a8 9f 6c 0e 19 72 3f 0d b6 6d 0d d2 7c 86 bf
       0.004418426842656674 -0.010980263743216612
000760 4d 58 da dc 51 22 73 3f cd 30 fe 58 b1 6b 63 3f
       0.00467140176410481 0.0023706878491279505
000770 f9 bc b0 dc 00 b2 82 3f d1 b9 64 58 9a 9d 75 bf
       0.00912857697957613 -0.005277254973675886
000780 ac 8b c8 8e 6a e1 2a bf 90 bb 48 f4 3a f4 85 bf
       -0.00020508218530420946 -0.01071973855968425
000790 f7 94 a3 a6 5c 9b 53 3f a7 d8 ef 67 75 0d 68 3f
       0.0011967091364167273 0.0029361050687795767
0007a0 34 4a b5 4e 89 e7 69 bf f3 e9 8e 76 31 9d 6c 3f
       -0.003162162951107628 0.0034929243160750577
0007b0 21 d4 6f ea c7 cf 7f 3f d7 b0 68 ab e5 bf 72 3f
       0.007766514702770373 0.0045775386302404275
0007c0 7a 34 44 e2 a8 9f 73 3f 42 cf 86 f8 cd 66 82 bf
       0.004790935232688582 -0.008985146662645275
0007d0 72 a5 5e 14 9e 93 67 bf ca b2 f9 a5 35 8f 73 bf
       -0.002878006695898599 -0.004775247157891635
0007e0 26 e8 4c 12 4d 23 6e 3f 1d 6a f3 f3 ca 2d 8d bf
       0.003678942232366661 -0.014247499055660967
0007f0 ae 75 1d 91 d1 73 76 3f 35 ee 33 79 47 b1 70 3f
       0.005481546993761395 0.004075316613348747

b1 f8 [1, 16]
000000 32 05 7e 81 f1 31 d0 3f 9d 0a c4 11 6f 15 d4 3f
       0.25304830213288476 0.3138082192892087
000010 a5 f7 7a 5f 71 d8 bd 3f 19 e5 15 b9 52 fb c0 3f
       0.11658390599310893 0.13266977345828293
000020 a7 62 f8 c0 43 bd 90 bf 4e 27 07 50 ca 58 99 bf
       -0.0163469873933503 -0.024752770552175556
000030 cc 9c 5a ec b6 48 6a 3f 3c f1 ae fd 45 1f 86 3f
       0.0032085011215091438 0.01080183678083612
000040 40 03 28 61 d7 6e ac 3f 72 1e 47 aa 78 5f c0 bf
       0.05553315220823274 -0.1279135543284045
000050 34 c3 bb 75 d7 32 ba bf d9 82 58 1c 27 ec a2 bf
       -0.10233828186370603 -0.03695795269982733
000060 45 11 a5 0f 9b c6 e3 3f 58 23 00 6f a4 3c b7 bf
       0.6179938607752226 -0.09076907834982018
000070 7e 9d b7 5a 2d 61 b7 bf 99 1f 84 62 4f d0 b9 3f
       -0.09132655586983238 0.10083480982950589

W2 f8 [16, 16]
000000 70 7e 84 bf 42 be 89 3f a2 90 2a 9c 32 39 75 bf
       0.012569924802448201 -0.0051815010980683935
000010 0a 67 02 a5 f6 dc 79 bf 84 57 18 23 dd 29 8f 3f
       -0.006314242797225375 0.015216567643658648
000020 86 61 50 54 55 92 62 3f 1c fe 0f 8a 38 9e 60 bf
       0.0022670427884003445 -0.002028570583661139
000030 39 b0 e8 27 48 4a 4c bf a6 e9 19 d8 03 86 66 bf
       -0.000863347275133381 -0.002749450214477994
000040 b3 09 aa ce 20 fe 77 3f 34 ee 3f 16 95 45 88 3f
       0.00585758986801681 0.011851467839725328
000050 a1 b4 2a a9 81 d4 71 3f 4b 0a cd 59 93 e8 95 3f
       0.0043530526042278314 0.021395017963423062
000060 b3 ce 81 c1 c5 87 66 bf 87 fd a4 5a 63 b0 4a 3f
       -0.0027502882404009887 0.0008144841315597542
000070 a9 cb fc db eb 58 7a 3f 7b ac 56 15 17 c4 86 bf
       0.006432458234303087 -0.011116199816419084
000080 eb a7 42 0e 15 a4 83 3f 58 9a f5 07 cb e9 73 3f
       0.009590305803005314 0.0048616343404775594
000090 4e 9e 95 be 76 b3 7f bf 88 95 ba 6e 92 a8 7e bf
       -0.007739509435260651 -0.007484981538856579
0000a0 cd d7 58 25 35 30 84 bf 65 4f 1f 81 5c bb 7d 3f
       -0.00985757370208864 0.007258759827852267
0000b0 73 87 f2 49 de 91 9d 3f 61 d8 74 cf 4c c9 80 bf
       0.02887675596560464 -0.008196449357097348
0000c0 79 23 88 57 86 8d 69 3f 14 4e 50 25 e4 73 84 3f
       0.0031192420831342407 0.009986669911120884
0000d0 3e 71 54 b9 e0 f0 81 bf 5a da 21 3f 68 a4 86 3f
       -0.00876021924573733 0.011055769373553282
0000e0 4e 23 48 3a c7 2c 73 bf e1 06 fb 5c 25 77 58 bf
       -0.0046813757258029175 -0.0014932503581097034
0000f0 9a 1a cc a6 6a 20 85 bf aa 9d 3d 3e 60 a7 7e bf
       -0.010315736022233058 -0.007483840894429697
000100 92 cb 0f bf b1 68 85 3f b7 89 3f 63 51 a7 84 bf
       0.010453594821205479 -0.010084758607210682
000110 69 0b 3c 2f ba 25 84 3f b8 b4 2d 7a bc 3f 7a bf
       0.0098375840821114 -0.006408439864441444
000120 19 ec cb 4d 44 30 85 bf 9f 28 1a 28 98 84 83 bf
       -0.010345967888033812 -0.009530247424909098
000130 e1 e0 e4 e0 6e 3a 40 bf a7 ab 7b 4d c7 89 63 bf
       -0.0004952470206154546 -0.002385033858322189
000140 e1 00 bb 8b a7 6d 75 3f dd 90 f9 76 d3 30 46 bf
       0.005231527782314256 -0.0006772072355940812
000150 c0 71 a0 c1 22 b5 6c bf 6e 53 37 52 f3 7e 46 3f
       -0.0035043410143897613 0.0006865203944764595
000160 d7 07 89 b7 c9 05 71 3f a4 21 06 4f 0b f7 8d bf
       0.004155910450721798 -0.01463135561859092
000170 d0 0a 9a b4 93 65 57 bf e1 cd 16 89 8f 77 83 3f
       -0.0014280264316829834 0.00950538766014736
000180 4c a5 de d4 bb d2 86 3f e9 fc 19 28 f4 e6 79 bf
       0.011144130166786191 -0.006323770272160114
000190 60 c3 18 d5 af 33 82 3f 0a ad 8c 83 82 c3 83 3f
       0.008887647333809034 0.00965024913747083
0001a0 5c 00 ba 0b 6b f3 49 3f e9 c7 2d 34 5e 78 80 3f
       0.0007919571575740847 0.00804208370911748
0001b0 32 bf cb cc d4 db 5b 3f 8f 4e 3f 10 2c 26 8c bf
       0.0017003610730021543 -0.013744682546451585
0001c0 73 d7 4e 1f d6 0c 38 3f 0b ce 28 fe 97 91 63 3f
       0.000366976047469484 0.0023887604341099647
0001d0 06 96 9e 1a a1 89 59 3f 42 e0 3a bf 56 7e 90 3f
       0.0015586922913625192 0.01610694448638151
0001e0 7f e0 8c 0a 60 d5 6c bf f8 79 c4 18 65 1d 83 3f
       -0.0035197139553951313 0.009333410089820568
0001f0 aa de 64 ad 5f fe 55 3f bb 21 c3 5a ac 54 61 3f
       0.0013423857067901648 0.0021155706691368937
000200 18 06 a4 30 1c 29 77 3f c8 20 ec 18 5d a5 76 bf
       0.005654440037916618 -0.0055287968268730794
000210 8f 59 38 8c 78 dd 5a 3f 0e 94 37 fb 21 79 80 bf
       0.0016397168373082115 -0.008043542365109981
000220 c7 00 94 47 7b 32 7a 3f 12 4a 0d 16 8c e1 7f 3f
       0.006395799218126003 0.007783457957730737
000230 66 ab 4a 7c e6 c3 94 bf e6 7e 1b 08 60 fd 46 3f
       -0.020278550468599298 0.0007015913872372131
000240 fb 61 4b e9 8b ec 7d 3f ee 89 2f 97 23 c4 6d bf
       0.007305666473904622 -0.003633565438108769
000250 1f fc 68 ff 79 56 2c bf 1a 95 3e 38 c8 71 7b 3f
       -0.00021620024900134788 0.006700307949278251
000260 ae 9c 5e 6b 61 47 82 bf b2 9c a9 74 4a fc 7c bf
       -0.00892521008411359 -0.007076540796879959
000270 ea 71 3f 52 74 2c 75 3f f9 68 1f ca a1 1b 70 bf
       0.005169348125459975 -0.003932601919553352
000280 ee e2 c0 76 0f cc 80 3f 17 92 b6 c7 f7 a3 82 3f
       0.008201714335983348 0.00910180643297402
000290 1f fa bc f5 2b 89 80 3f 37 55 5d 9b 68 b0 78 bf
       0.008074134289583644 -0.00602761137073076
0002a0 3f 12 7d b7 24 6d 77 bf 6c 24 58 bc 12 1f 5e bf
       -0.0057193216560489915 -0.0018384631124510843
0002b0 17 30 01 d8 d1 54 5b 3f 91 26 47 4b 36 bf 66 bf
       0.0016681718116329286 -0.0027767239027738995
0002c0 89 e7 dd 8c c8 37 83 3f cd 55 bc 9b f6 21 69 bf
       0.00938374214068795 -0.0030679527825536513
0002d0 44 23 9a d5 31 b2 80 3f 6a 90 54 97 d6 f3 79 bf
       0.008152379351729196 -0.006336057898156703
0002e0 8f ac 5b 4d a1 cc 76 bf 7c 30 43 64 1d 58 72 bf
       -0.005566244207993467 -0.004478564082273203
0002f0 2d f8 76 f9 2c 8a 45 bf 34 78 00 78 57 13 62 bf
       -0.0006573409654533395 -0.0022064884542621014
000300 78 6d 48 cb df 03 74 bf 90 ce fb 18 ba 6d 55 3f
       -0.0048865072208416 0.0013078992232608312
000310 41 92 74 f2 d5 06 43 bf 98 84 60 a5 88 d9 5a 3f
       -0.0005806488669902258 0.0016387781556732924
000320 d8 e7 7f 13 ec 04 69 bf 89 e8 5b 47 90 fc 6f bf
       -0.0030541048872665226 -0.0039046113914738595
000330 c5 9c 7a 90 25 7b 71 bf 2a 24 5d 9a 47 0e 81 bf
       -0.004267832504104512 -0.008328017614660583
000340 fe e8 95 bb a0 9b 75 bf 5f 2c 51 2d ec 02 83 3f
       -0.005275371420220274 0.009282918103187208
000350 b1 33 c2 ae 49 63 75 bf c4 71 1e cc 4c 2b 6c 3f
       -0.005221641371588357 0.003438615793994711
000360 d4 f7 fc 95 be a6 70 bf e2 b6 07 53 a7 8f 7a bf
       -0.004065269924295085 -0.006484655008973413
000370 8a f1 d9 47 88 bf 65 bf f1 22 9d f8 f9 91 71 bf
       -0.00265480630224441 -0.004289604615970375
000380 46 6c 6f 5f 58 f5 2e 3f f0 78 ac 98 7e ae 7a bf
       0.00023619369286973136 -0.00651406718932733
000390 c3 67 21 b5 50 84 7c 3f b8 a2 78 d9 46 0c 85 3f
       0.006962123168785031 0.010277322303481426
0003a0 72 da 22 73 78 03 72 3f 41 13 57 6a 18 30 7d 3f
       0.004397840983236466 0.00712594544660733
0003b0 ed 4a 27 68 c8 86 84 3f b3 b4 b5 32 a9 86 8d bf
       0.010022702864181688 -0.014417001590766842
0003c0 78 f1 f3 43 0b be 82 bf 83 29 fc 6e 33 82 66 3f
       -0.009151542674310717 0.002747631507991234
0003d0 f4 6d a2 c5 51 bd 83 3f 13 f9 4a 09 5b f3 7d bf
       0.00963844189055061 -0.007312160120532834
0003e0 87 7e 7b e2 b0 68 65 bf 94 fd fb 97 40 57 74 bf
       -0.002613397100375728 -0.004966022795769649
0003f0 29 7d 16 90 a4 40 f7 be 13 3c b6 84 9f d1 69 3f
       -2.217532256098862e-05 0.0031517139047490066
000400 b3 85 4d 72 2d 35 7d 3f 91 ab b9 0a c2 04 46 3f
       0.0071307921651579285 0.0006719539137071008
000410 2a 88 63 6b 87 58 7e 3f 60 d1 e7 2e 74 e3 81 bf
       0.007408646566746705 -0.008734615022128522
000420 61 62 88 ad 01 32 5d bf 7a c6 e0 52 7c 8f 50 3f
       -0.0017819420228361237 0.001010772142319287
000430 e2 95 89 ce ee fd 1c bf a2 e4 72 b3 9d 55 3e bf
       -0.00011059541760401846 -0.00046286678429969576
000440 a6 cf 45 cb b2 a4 5a 3f 1c f6 7f 4d b0 fa 6a 3f
       0.0016261812243927114 0.003293365803982663
000450 40 8e 3d cc 03 38 5b 3f c6 27 9d b9 7b e3 6a 3f
       0.0016613041961698466 0.0032823006157842475
000460 df 85 86 32 a1 f7 21 bf 0e 1e af 10 04 44 62 bf
       -0.00013707964650415316 -0.002229698123730867
000470 eb 18 6f 80 22 4e 7b 3f 4d 02 f3 a5 53 40 63 3f
       0.006666312000510137 0.0023500093226121233
000480 2a 44 c1 da 62 8b 74 bf 09 33 1a 05 a5 f3 60 3f
       -0.005015741491733153 0.002069303803017401
000490 05 22 1c 00 d3 2a 80 3f e1 4f 88 f1 c8 9d 75 bf
       0.007894180718282415 -0.005277428565495485
0004a0 01 83 f8 e2 58 c3 61 bf 71 ff f0 44 75 c3 70 bf
       -0.002168344122552291 -0.004092653353893514
0004b0 e2 96 cf 6c 87 9d 82 3f 44 c0 27 0d 8b 68 7e 3f
       0.009089525230546017 0.007423918885692219
0004c0 78 17 3d 01 d2 59 65 bf 4d 7a 14 c5 47 e2 6c bf
       -0.002606306234073704 -0.003525867629505164
0004d0 33 e0 56 36 07 f7 7c 3f 02 ac e3 9b 28 71 88 bf
       0.0070715219239261716 -0.01193458295570871
0004e0 38 b8 c5 2a 84 26 6f 3f c6 c7 bc 75 5a 1a 40 3f
       0.003802545679881166 0.0004914228152073034
0004f0 81 1c f1 00 b9 62 6a bf 87 b1 ab 1d 3f 0a 7d bf
       -0.0032209027627093105 -0.007089849993218051
000500 b9 89 6b 90 1e b9 2f bf ee ac b0 14 f3 b2 89 3f
       -0.0002420282182447728 0.012548350399887966
000510 ed 1c be da cb 4a 76 bf 3e 7a 44 fd 69 ff 88 bf
       -0.0054424250664688424 -0.012205913583383961
000520 d6 07 86 12 3e fd 7d bf e5 3a 59 b9 a9 a5 6b bf
       -0.007321588964602518 -0.003374892704221965
000530 92 6a 60 5b f2 83 7e bf 5e 8c 96 69 1e 77 71 3f
       -0.007450052935406364 0.004263991163870077
000540 29 1f 49 ec 6b 4b 77 bf 4f 6e 26 08 e3 10 77 bf
       -0.005687161993200887 -0.005631338923560116
000550 1b db f3 2a b3 76 71 bf 1e 2d 00 e4 fb 17 46 3f
       -0.004263591646341404 0.0006742458281236185
000560 f3 83 89 34 cb aa 66 3f 19 dd 50 bb 02 11 64 bf
       0.0027669876911180446 -0.002449517569882109
000570 91 b8 47 8b af e5 61 3f 66 ea d9 a5 76 ae 82 bf
       0.0021847179980261718 -0.009121825157525975
000580 c3 37 d5 bd 92 cf 82 bf 51 0b ab c1 9b e1 62 bf
       -0.009184976976623354 -0.002304844104715022
000590 ec b7 48 4c a1 fb 4b 3f f4 f1 22 ac dd 4c 74 bf
       0.0008539712512793929 -0.004956117542118655
0005a0 e1 f8 85 85 cd d3 72 bf 0b 84 d1 6e d8 c4 7e 3f
       -0.004596522158293066 0.007511945191340362
0005b0 ce 47 4e 7f 4d 75 6d 3f 82 2f 8c 8e d6 ee 5b bf
       0.0035959733599577387 -0.001704892662192287
0005c0 b7 60 82 84 12 29 8d bf a3 aa ef 8f 03 de 5c 3f
       -0.014238495510923916 0.0017619166171651067
0005d0 77 8e 2f 23 58 f9 82 bf 2b d4 8c 63 cb ff 82 bf
       -0.009264648984703456 -0.009276951766517957
0005e0 97 6b be 81 55 99 7a bf 2c 1e 80 ca 30 36 89 3f
       -0.006493886958106729 0.012310391597579594
0005f0 7d f3 a2 7f 8f c3 75 3f 17 73 fe 03 44 a3 72 3f
       0.005313454190567832 0.004550233541434043
000600 be c4 ac 4f 10 82 8e 3f 5a 0f 7f 58 d6 54 54 bf
       0.014896514350399289 -0.0012409299106232647
000610 5f fd de 77 f1 54 6b 3f ad 95 3f af 9f fc 86 3f
       0.0033364025284467326 0.011224029098182731
000620 cc b9 73 7d 9a 5e 7a bf f4 9a 94 26 d2 2c 72 bf
       -0.0064378771560158025 -0.004437275792304563
000630 c3 4b 32 6a 6c f4 a2 3f 38 5d ce 05 47 f2 76 bf
       0.03702105327933893 -0.0056021475146715224
000640 cc b8 31 91 1f bc 53 3f cf 38 67 09 aa ad 9b 3f
       0.001204520060834424 0.027029663871694972
000650 89 ec 46 35 e9 6e 46 bf ae cc 75 d4 42 f3 a0 3f
       -0.0006846083365909121 0.03310593455798859
000660 2b 86 f0 33 02 56 74 3f 36 a6 53 59 37 19 53 bf
       0.004964836697611423 -0.0011656799809379842
000670 7b 21 d0 e8 8c bf 67 3f 5d db 34 6f 1b 1c 75 3f
       0.0028989555489752883 0.00515375820696459
000680 c1 49 ad 93 6e c8 89 bf 3d d4 d2 63 41 a7 6c 3f
       -0.012589324838391815 0.003497722353666548
000690 3f d0 b9 5a 92 e3 72 bf e3 cd 7d 45 15 f0 8c 3f
       -0.004611560532442437 0.014129797156534124
0006a0 97 94 fd 56 53 d7 6b bf bb cc 5f 91 a7 f2 46 3f
       -0.003398573659000602 0.000700313396690431
0006b0 00 a3 d2 6c 93 e4 7e 3f c4 0b 7b e4 a5 22 76 bf
       0.007542205695394655 -0.005404136674488084
0006c0 88 4f 5b 89 9e 97 81 bf a5 5f 07 77 f6 e1 6a 3f
       -0.008589972082894595 0.0032815755623509407
0006d0 72 81 57 6c 89 77 5b 3f 66 54 e3 f7 40 b3 7e bf
       0.0016764490150010494 -0.007495168478461078
0006e0 9f 9b bb 8d 2a bc 61 bf 23 44 89 f4 a7 23 88 3f
       -0.002164919960580616 0.01178675856604811
0006f0 3f f3 6d 22 c6 4c 8b 3f fa 9b 5c a1 40 9a 60 bf
       0.013330028463082065 -0.002026678305714122
000700 c3 d5 58 34 02 3d 9c 3e d1 69 71 7a 28 30 68 bf
       4.2078368198429294e-07 -0.0029526510802899493
000710 b9 be eb a0 b2 1e 64 3f 48 b7 0a 31 5c 83 87 bf
       0.0024560440864361513 -0.011481018301619308
000720 bb 28 cb 7e 8c 42 81 3f 7a df f5 54 f4 fc 71 3f
       0.008427713031228348 0.004391626759904338
000730 0a 9b 1f e9 87 1f 73 bf 4c e5 99 32 44 c2 71 3f
       -0.004668742085391706 0.0043356574984668265
000740 b6 06 60 ec 88 54 77 3f 2b f2 9a 99 61 52 69 3f
       0.005695853096769168 0.003091040253677476
000750 c3 2f af ca 09 ad 8d 3f 83 1d cb 0b 57 98 74 bf
       0.014490200517592094 -0.005028095267966551
000760 99 c9 19 fc 33 21 86 3f ee 9b 31 c4 20 d8 6d 3f
       0.010805517321590229 0.003643096920814318
000770 d9 4c c8 5b a1 35 4c bf d6 3e 0d 15 42 1b 71 bf
       -0.0008608854182647021 -0.004176386007045804
000780 26 a7 cb 11 cd 84 87 3f 76 51 ee 77 6a 1d 68 bf
       0.011483766656471394 -0.002943714090586076
000790 e4 f8 94 4e fd c9 57 bf da 3f 1d e2 ae 15 78 3f
       -0.0014519666386401614 0.005880053651551942
0007a0 77 b4 d0 dd 36 d9 8a bf 3b 18 df e1 da 63 78 bf
       -0.013109615940346082 -0.0059546041574716725
0007b0 ba 90 1c ee 08 fb 7a bf 1a f7 cf 95 62 ac 72 3f
       -0.006587061770719932 0.004558930490927949
0007c0 f7 26 24 c0 7b 98 8e 3f 60 de 78 ef 98 3e 91 bf
       0.0149392765056464 -0.016840352646083523
0007d0 ff 42 95 69 73 7e 82 3f a5 a1 0d 6a f3 13 63 bf
       0.00903024831737431 -0.002328849237916058
0007e0 f2 f5 d2 ed 52 e1 45 3f 97 9f b1 c1 e2 4a 80 3f
       0.0006677298475989398 0.00795533326727575
0007f0 53 dc 0d 24 c1 c7 70 3f 3c e2 85 ea fd e1 7b 3f
       0.004096750694649281 0.006807319507395489

b2 f8 [1, 16]
000000 aa 01 d7 ee 4b af da 3f 68 95 25 be 7a ad a3 bf
       0.41694925617414447 -0.03843291827323975
000010 91 da cb 14 e5 61 cc bf be 18 02 3c 67 77 bb 3f
       -0.22173751368946573 0.10729069914859488
000020 07 a8 fa 26 8b 24 80 3f 05 f9 53 9b 11 56 a9 bf
       0.007882201315926108 -0.04948477765172935
000030 c5 2f e2 44 ce 08 dc 3f f5 b9 24 6a 5a 38 90 3f
       0.43803745963009205 0.01583997032974512
000040 53 c7 d7 98 dd eb d1 3f 2d 04 24 11 5a 5d d0 3f
       0.2800210945707608 0.2556977431668795
000050 93 8a 81 99 83 b3 a0 bf ce ec 6e e7 da 3f dc 3f
       -0.03261958359577934 0.44139740563305174
000060 e7 91 d3 d0 82 cb 96 3f 39 01 be 95 c1 58 a6 bf
       0.022260707851175978 -0.043645905999257946
000070 8b 89 9f d8 7c 8a bf 3f 0a 27 0d 0a 8b 95 a5 3f
       0.12320690430309449 0.04215654847810242

W3 f8 [16, 1]
000000 0f a1 0e 9f 80 a8 af 3f 58 6c a6 9f 9c a0 7d bf
       0.061832446495204356 -0.007233249484126146
000010 ff 41 1f 5e 10 19 82 bf 49 28 17 86 d6 12 95 3f
       -0.008836868164423526 0.02057967370436867
000020 dd e2 5c 9a ba 83 42 bf b9 0e 2b a5 0a ca 78 bf
       -0.0005650197169649558 -0.006052056868330596
000030 8f 94 84 14 12 24 b3 3f 30 3b a6 e8 62 2c 64 3f
       0.07476914406704992 0.0024625713169323035
000040 6a 05 4c 48 c8 5b a2 3f 8a f3 ee 96 76 bc a7 3f
       0.03585649378329488 0.046359735416877504
000050 15 dd 9d ec b1 bc 4a bf 7d 39 aa 09 2f eb b2 3f
       -0.0008159512301365879 0.07390111909828607
000060 83 33 f9 54 31 19 6c 3f fe d5 27 ff 4d 67 6b bf
       0.0034299815668305546 -0.003345157944972809
000070 59 05 39 fb f4 c4 90 3f 1b 46 4f 52 32 1e 75 3f
       0.016376331170481737 0.005155750816770356

b3 f8 [1, 1]
000000 af 20 aa d6 09 7e f8 3f
       1.530771101506655
